model/LeNet.pth (torch, 180551 bytes, 10 tensors)

conv1.weight f4 [6, 1, 5, 5]
00000000: 9565 3cbe a81b d4bc 1d84 863e af8c 193e
00000010: 619a b43d 9c67 033e 968e e1bc c121 263e
00000020: aeaf 933e 2cf0 0f3e 9f44 883d 8462 0b3d
00000030: e56b 243e bbae babc 8b9b aa3d 99ab ac3d
00000040: af36 13be cb1c 98bd 6675 82bc ea8b 0d3e
00000050: 0231 70be 1cdc 9cbe 56f8 a9be f4fd 56be
00000060: 4366 1fbd 66f7 c9bd 9dd6 aabd 48ea 33be
00000070: 1b11 1e3e c9ee 0c3d d645 35be e708 0a3e
00000080: f9fd 403e b3a9 24be 330a 30be b94a 773e
00000090: 3cdc 993e e04d 59be 80a4 bbbe 061d aabe
000000a0: 938a c63d 4fd3 a33d 2c41 33be f5a9 d7bd
000000b0: 04b4 24be 7641 f43d 6e53 493e 9a15 dc3e
000000c0: 0d4f 9e3e 72d7 e73d 1343 ac3e eda8 283e
000000d0: 35a9 a93d 7fdf 973e 9d56 e9bc 4431 b83e
000000e0: cc12 8a3e 9362 ec3d 7a5a 16be 84a7 0bbe
000000f0: b69f 843e 4f4d c3bc b5f9 af3d b75f 0fbe
00000100: 152e 99bd 0d19 263d 4718 17be 1ef0 0bbe
00000110: 217e 45be c880 8ebe 0368 3fbe 1b95 6abe
00000120: 85e4 afbd f0f6 273d e28e 81be 0b87 44bc
00000130: 6dd0 f3bd 93a7 79be c25f 3bbd 89e3 0dbe
00000140: 8547 4fbe 3815 75be 9c1d f8bb 6d08 34bd
00000150: c6eb 52be 858a bd3c 282c 3dbe 2b2a 8dbe
00000160: 7f2a 5fbe 99c5 60be bf80 73be 4bc2 a3bd
00000170: beb2 a33a be1d b7bc 415a d23d c0ec d7bd
00000180: bfa6 023d 3bfd ecbd 5b11 ca3d 3056 6b3d
00000190: b983 d13d f970 7e3e cb18 dbbc 02f8 b53e
000001a0: 4893 103e b533 eebd bacb 673c 38f8 d8bd
000001b0: d4fe d4bd ea72 8c3e ea6b 5cbe fec6 abbc
000001c0: 4253 eebd a4f6 233e 87a0 893e 539d 43bd
000001d0: 04c2 4ebe cf33 90be 369e 28be 76b6 873e
000001e0: f394 5cbe 4477 5bbe 50fe 23bd 5b46 133e
000001f0: 6a85 5c3e 9670 c0bd bac6 df3d 8614 403e
00000200: 2f73 943d f596 b23d 7815 8dbe 1768 a63d
00000210: cd1e 813e 1188 d63d 536c 2dbe 95ee 83bd
00000220: c256 1e3e 25fa 993e d5b2 753e f0e1 1bbe
00000230: ebf4 03be 2e1d 233e 91db 3b3e dd62 1a3d
00000240: 51f9 a1be a0ff e8bc d424 b43e 36a7 473e
00000250: 8e4f d3ba b5c4 56be
-0.18398125 -0.025892094 0.2627267 0.14995073 0.08818508 0.12832493 -0.02753381 0.16223814
0.2884497 0.14056462 0.066537134 0.0340295 0.16056783 -0.022788396 0.08330449 0.08431167
-0.14376329 -0.07427367 -0.01592512 0.13822904 -0.23456195 -0.3063668 -0.33197278 -0.20995313
-0.038915884 -0.09861641 -0.083417155 -0.1756984 0.15436213 0.03440741 -0.17702422 0.13479958
0.18846883 -0.1608036 -0.1719139 0.24149598 0.30050838 -0.21221113 -0.3664894 -0.33225268
0.096944 0.07999288 -0.1750533 -0.105304636 -0.16084296 0.11926548 0.19660732 0.4298523
0.30919686 0.1132039 0.33644924 0.1647069 0.08284227 0.296627 -0.028483683 0.35975087
0.26967466 0.11542239 -0.14682952 -0.13638121 0.259031 -0.023840575 0.0859255 -0.14001356
-0.074794926 0.040551234 -0.14755355 -0.13665816 -0.19286396 -0.27832627 -0.18692021 -0.22908442
-0.085885085 0.041006982 -0.25304323 -0.011995087 -0.119049884 -0.2438033 -0.04574562 -0.13856329
-0.20242126 -0.23933876 -0.007571889 -0.043953348 -0.20597753 0.02313734 -0.18473876 -0.27571234
-0.21793555 -0.21950378 -0.23779581 -0.07996043 0.0012489182 -0.02235305 0.10271121 -0.10543203
0.031897303 -0.115717374 0.098665915 0.05745524 0.10230202 0.24847783 -0.02674522 0.35540777
0.14118683 -0.11630956 0.014147693 -0.10594219 -0.10400167 0.27431422 -0.21525541 -0.02096891
-0.11636974 0.16012055 0.26880285 -0.047757458 -0.20191199 -0.28164527 -0.16466603 0.26506394
-0.21541195 -0.21432215 -0.040037453 0.14382307 0.21535268 -0.09396474 0.10926576 0.18757829
0.07248532 0.08720199 -0.27555442 0.08125322 0.25218812 0.10475171 -0.16935854 -0.0644199
0.15462783 0.30073658 0.23994 -0.15222907 -0.12886398 0.159291 0.18345477 0.03769194
-0.31635526 -0.028442204 0.35184348 0.1949738 -0.0016121732 -0.20973475

conv1.bias f4 [6]
00000000: 4e60 893e 8538 6d3d 56b0 183e ab32 9a3c
00000010: dc90 f63b f2b9 033d
0.26831287 0.05791523 0.14911017 0.018822988 0.007524593 0.032159753

conv2.weight f4 [16, 6, 5, 5]
00000000: 17ae 803d 99de 3f3d 87c1 93bd 8460 84bb
00000010: b184 d4bd c262 00bd 1a1f 9b3c fc7e cdbd
00000020: 4b68 84bc a372 b6bd 5263 21be 7709 54bd
00000030: baa3 123d e49b f9bc c523 e4bc dbdf c53c
00000040: 25e8 fdbc a1b4 83bd d746 d83d 9af3 28bd
00000050: 9c68 bc3a 96fe 223c 70dc 2c3d 648a d03d
00000060: e3b1 773d 4589 fcbc ca72 b2bd cfcc c73c
00000070: d454 db3d e55d cc3c 59b7 873d 3c4e 3cbd
00000080: 8f32 6ebd c13d 4a3d 456c a33d 955d 34be
00000090: 53c5 27be 049c 553d 8f2d bb3d 1c5e 2e3e
000000a0: 629e 44be f847 253d 3bc3 a43d e3cc b63d
000000b0: 3f13 133e b5cf 1cbd 7141 8d3c 5cb7 f33d
000000c0: 387c a73d aa15 c3bc 629e 49bd afce 853c
000000d0: 540b 83bd 55d0 a2bd b751 0c3d cbca 2abc
000000e0: 2d07 c1bb 2eda d0bc c147 573c 8172 383c
000000f0: b9a7 bfbd 70e2 bdbd 9a40 21bd f600 eb3d
00000100: 5715 b53c 1a8c d73d adb0 5fbd cc03 2fbd
00000110: 353b 353c a551 303c 43c9 123d 7b97 f4bd
00000120: eed6 71bd b7fd c8bd b260 9c3d 7ec6 89bd
00000130: 9ff2 5ebd 0bd2 27bd abfe 43bd 9ae5 8f3d
00000140: 0cd5 d43d 7b23 ca3c 1bd8 85bd 04c1 69b9
00000150: 8b06 74bd 4eec cd3d 7324 82bd ad5c 4dbd
00000160: b1c0 c3bd e47f 64bd 3f68 b9bc aee0 c8bc
00000170: 068a 1f3c 97f3 c1bd 20ab e8bc 9233 81bc
00000180: b3fe 663d 6e3b cabc 5eee 9abd c0a3 58bd
00000190: a9d3 c93d b093 c53d d0cd d83b eb56 e33a
000001a0: 1b14 3bbd 49c4 193d c2a3 e03d fdbd 593d
000001b0: 2e23 c7bd ace7 03be 3849 973d d9fd 433d
000001c0: f3ff 533d 54de e4bd 57f3 0bbd c5fc e23d
000001d0: 7074 b4bc 2642 59bd b31f 1a3d abeb 8abd
000001e0: ff33 a43d 5a7c 7b3d c7a9 46bd 4c95 d73c
000001f0: 1836 c63d f207 1b3d 0945 f6bc fc21 ba3d
00000200: 51e2 0c3e 21b6 c03d 9092 9cbd a06f be3d
00000210: ff6a 2f3e 5619 d63d af47 5abc 9357 aebd
00000220: 8a8b 133c a7c0 883d 9781 103e f144 a1bb
00000230: 1eea 11bd bd06 453e 1c92 f13d 43ef 7abc
00000240: cca4 c6bd cbf5 dabb 3a4f ad3d 1fed a53d
00000250: dfbc 283c 045e b5bc 8622 9f3d 0b58 dbbb
00000260: 9393 d6bc ecea 8e3d a167 ca3d 3c5b 99bc
00000270: 04d7 953d 8b49 b1bd 3815 e6bd 1baa fe3c
00000280: 8242 2f3d 2b43 a33d 4b42 883d 4f94 9c3d
00000290: e612 8fbd db5e 193d 888e 793d a71f ae3d
000002a0: b19b 123e f948 193e 96ed 973c 1e13 da3b
000002b0: 4b6e a83d 3b96 283e 128c ce3d 07bd d23d
000002c0: bdf9 2f3d 1d89 7d3c f7b4 1bbd 4d68 ad3c
000002d0: 69b2 bebd 10f7 333d 9de3 053e 761d 103e
000002e0: 952e ba3d 18be 55bd 7f76 183e 6e48 093e
000002f0: 4b71 453e 9255 0c3e 1ecf c8bd 6b0b 1b3d
00000300: 176b 483d ef9a acbd 0f19 cb3d 57af 60bd
00000310: 0e85 9cbd 692e 7dbd 251d c0bd 85a8 63bd
00000320: 27d3 cb3b 5b29 babc e8cb 6dbd a581 5abd
00000330: 373c eabb 1bb8 51bd 61cb 7cbd fcb4 b83d
00000340: eff8 dbbc c30a 9a3b b3a9 9ebd 4d1e 24be
00000350: 7643 ebb9 2d66 16be 0354 d3bd d56e a0bd
00000360: 7cf3 01be c3f4 8cbc 51a1 3dbc 5494 083e
00000370: f653 543d 3b6c 673c 9770 c6bd 5034 82bd
00000380: b45d 4c3d b44b 8ebc 59ea 87bd 7b4c 193d
00000390: 62f0 9c3d 9d1d 99bd 5f09 4b3d 26f6 aabd
000003a0: 1d8d b8bd fd72 78bc 8d8e 73bc 8d17 c6bb
000003b0: ed0a 4dbd ba6b 42bd 474b ecbd 77c4 193c
000003c0: af37 3a3d 4b24 99bd eea8 0bbe 8893 39bd
000003d0: e95f 7ebd 3ac8 b33d 42a9 d83d af48 913d
000003e0: f55d 2dbd d938 21bc c31b b73d 3d52 363d
000003f0: bc81 87bd a60f 27bb f397 50bc 13a2 a43a
0.06283205 0.046843145 -0.07214647 -0.004039826 -0.103768714 -0.031344183 0.018935729 -0.10033986
-0.016163012 -0.08908584 -0.15760544 -0.05176684 0.035800673 -0.030469842 -0.027849087 0.024154594
-0.030994484 -0.064309366 0.10560387 -0.04124794 0.0014374438 0.009948393 0.042202413 0.10182646
0.06047238 -0.030827174 -0.087133005 0.024389653 0.10709539 0.024947116 0.06626768 -0.045973048
-0.058153685 0.0493753 0.07979635 -0.17613824 -0.16383867 0.05215074 0.09139549 0.17028087
-0.19201043 0.040351838 0.0804505 0.08925798 0.1436281 -0.038284022 0.017243119 0.119002074
0.0817799 -0.023814041 -0.04922331 0.016333906 -0.06398645 -0.079498924 0.034257617 -0.010424326
-0.005890748 -0.025494661 0.013139666 0.011257769 -0.093581624 -0.09271705 -0.03936825 0.11474793
0.022104902 0.10524769 -0.05461185 -0.04272823 0.011061479 0.010761653 0.03583647 -0.11942955
-0.059042864 -0.09814017 0.07635631 -0.067273125 -0.0544306 -0.040971797 -0.047850292 0.07026215
0.10392198 0.024675122 -0.065353595 -0.00022292515 -0.059576552 0.10054837 -0.063546084 -0.05013721
-0.09558237 -0.05578603 -0.022632716 -0.024521198 0.009737497 -0.09470289 -0.028401911 -0.015771661
0.056395244 -0.024686541 -0.07564996 -0.05289054 0.09854824 0.0964731 0.0066163316 0.0017344629
-0.04567347 0.037540708 0.10968734 0.053159703 -0.09723507 -0.12881345 0.07387012 0.04784951
0.051757764 -0.11175218 -0.034167614 0.11083368 -0.022028178 -0.0530416 0.037627887 -0.06783231
0.0801773 0.061397888 -0.048501756 0.026316307 0.09678286 0.037849374 -0.030062215 0.09088513
0.13758208 0.09409738 -0.07645142 0.092986345 0.1713066 0.10454051 -0.013322755 -0.08512797
0.009005437 0.066773705 0.14111935 -0.0049215485 -0.035623662 0.19240852 0.11795446 -0.0153158335
-0.09699401 -0.006682133 0.08462377 0.08101868 0.010298937 -0.022139557 0.07770257 -0.006693845
-0.026193416 0.069784015 0.09883047 -0.018720262 0.073164016 -0.08656605 -0.11234516 0.031086972
0.042788036 0.07971796 0.066532694 0.07645475 -0.069860265 0.037443977 0.060926944 0.08502131
0.14317204 0.14969243 0.018545907 0.006655111 0.08224162 0.16463558 0.1008531 0.1028996
0.04296278 0.015474585 -0.03801438 0.021167899 -0.09311373 0.04393679 0.13075109 0.14073738
0.09090916 -0.05218324 0.14888953 0.13406536 0.19281499 0.13704517 -0.098051295 0.037852686
0.048930254 -0.08427989 0.09916889 -0.054854717 -0.07642566 -0.06181184 -0.09380559 -0.055580635
0.0062202397 -0.022724798 -0.05805579 -0.053346295 -0.0071482914 -0.051200967 -0.061717395 0.09018895
-0.0268521 0.00470099 -0.07747211 -0.16027184 -0.00044872955 -0.14687414 -0.10318758 -0.078336395
-0.12690538 -0.017206555 -0.011574105 0.13337833 0.051837884 0.014124925 -0.096894436 -0.06357634
0.04989405 -0.017370082 -0.06636495 0.037426453 0.07663037 -0.074763514 0.049569484 -0.0834773
-0.0901129 -0.015164134 -0.01486553 -0.006045288 -0.050059248 -0.047466017 -0.115377955 0.00938522
0.04546326 -0.074776255 -0.1363866 -0.045306712 -0.062103186 0.087784246 0.10579158 0.070939414
-0.042325933 -0.009840214 0.08940842 0.044512022 -0.06616542 -0.0025491505 -0.01273154 0.0012560509

conv2.bias f4 [16]
00000000: 4849 473d f0a5 cf3d 3fe0 2abd 9fab 953d
00000010: eabe c8bc 16d0 8cbc 6ee2 7a3d 5888 ba3d
00000020: e6e7 7f3d 6160 92bd 8524 c43d ffb5 f33c
00000030: 1a02 4cbd c122 043d 73c3 843d bd9b 9bbd
0.04865387 0.10139072 -0.041717764 0.07308125 -0.024505097 -0.017189067 0.061251096 0.09108037
0.062477015 -0.07147289 0.09577278 0.029749868 -0.04980669 0.032259706 0.064825915 -0.07598064

fc1.weight f4 [120, 256]
00000000: c388 3e3a 8118 f53b 7e7f 67bd d9fe 453d
00000010: 6c1f 513d 94a6 f6bc 62e6 89bd d8e2 0f3d
00000020: dfc1 3cbd e6bc 243c e329 313b 237d 27bd
00000030: 7b52 eb3c ee86 e33c 9a4b 50bd c035 193d
00000040: e042 a4bc f545 393d 683f 54bd 0872 babc
00000050: 8136 123d 1507 2c3d be7c 0b3c 837a 2a3d
00000060: fdde 36bd 6ab5 23bd e4a2 ce3c 2135 8dbd
00000070: 95ab d0bb 5a8b 103d 5bdd eb3c 334a 3f3d
00000080: ed84 263d 83b4 73bd 548b 52bb bcea 82bd
00000090: f8b5 d4bc 0200 dfbc 3a02 483d 28ac fcbc
000000a0: 9d10 daba be8e a5bc 0256 9b3c 4467 c2bc
000000b0: ab86 32bd e54b 82ba 28a2 143d 9bcc 47bd
000000c0: 21aa 4cbd cf66 0c3c e555 edbc 18ef 903c
000000d0: 3b68 42bc 22cf c4bc 3865 14bc 06a2 81bc
000000e0: fc1e bdbc 2521 0dbc 7e07 9e3c ee73 223d
000000f0: 5c3f 1e3d 1557 44bd ac83 5cbd f6b3 adbc
00000100: 79c0 34bd 74f5 17bc 3bc1 f13c 417b 4a3d
00000110: f6c5 92bb 2d5e 87bd c701 80bd 8c9d 59bd
00000120: 8379 533d 8319 fabb c66d ccbc 5cc1 9ebc
00000130: 78c4 8bbd e700 68ba 0de3 93bc f6cd 203c
00000140: 7d5e 5c3b 6bd5 32bd d6fe b03c 0dcb 8b3c
00000150: a2ea ef3c be8c 1f3c 2813 4bbd fb14 3abb
00000160: 465a 143c 3b9e ffbb 58c7 28bd 0dbb 173d
00000170: 32c2 c43c 150c 483d c0b4 c93c 1e6d c3bc
00000180: 7339 87bd cd3b 44bd c5f6 2a3d d3e9 a03c
00000190: 53cc 183d 522c 4abc 288e c1bc 48cf bc3a
000001a0: ac82 a9bc 0a70 61bd cedd 3bbd 539a a93c
000001b0: e356 013d 8feb 7abd 1427 083d 3637 dabc
000001c0: 6e88 08bd 83ce 473d b8e5 0fbd d5a3 c63b
000001d0: 0cd0 44bd 2b76 46bd ad8c 3d3d 9e1b 123c
000001e0: eb72 ddbc 1276 15bc 8a70 593d 2c6e 903c
000001f0: c5dc 3e3d 24c9 fabc f097 4ebc 9077 913c
00000200: 2938 5e3b 569d 5c3d 5300 8ebb 8732 233d
00000210: 062a c43c 3faf 60ba a909 65bd 3c85 38bc
00000220: f664 bc3c 0ad0 d6b8 77f3 103d e37c 0ebd
00000230: c8e6 a03b d5fb 3f3d b7b5 bebc 40c7 64bb
00000240: dbc0 243d 1c09 a73b 1d81 2abd 3ed0 613d
00000250: 86c6 513d c327 68bd d5d8 323d 83db b1bc
00000260: c769 ef3c 88b2 25bd bf27 28bd c558 3e3d
00000270: f13f 0dbd 24e7 053d 24e0 b73b 112a 20b8
00000280: 88dc 81bc 3684 5f3d 5bb1 1fbd a144 39bd
00000290: 869a 503d d73b 49bd 5a6b 35bd d41b 243d
000002a0: 606c ebbc c496 a9bc 02fe 393d fb22 523d
000002b0: 9928 3b3d 1765 2abc de4b 35bd 45c7 5f3d
000002c0: c5a0 f63c 06a1 14bd a311 a839 822c b5bc
000002d0: 8be7 63bd 7451 943c b630 f1bc f987 5d3b
000002e0: ea38 cb3c f65a 163d d7fc b1bb d583 053d
000002f0: 2e29 1ebc 3128 673a d425 8abd 34b1 22bd
00000300: bbf1 ef3c 4e7f f1bc e736 3dbd c200 1ebd
00000310: 2434 013d a161 49bd bd24 eabc ca7c 80bd
00000320: dbf6 7bbd 15a9 1b3c 680f d23c 02b9 04bd
00000330: 0ee1 37bd 0c0f 4abd 5f46 83bc 4b26 873c
00000340: 684b 8a3c eb43 6abd fc27 dd3c 550f 8a3c
00000350: 4294 9e3c 3938 3b3d b590 69bd 2593 ed3c
00000360: 9614 2dbb 035d 89bd 89ee 083d 97f3 f63b
00000370: 5752 40bd a0c2 6fbd e239 49bd 5a59 2fbd
00000380: 7bd2 6d3d f705 9a3c 066e 5dbd 15c0 d9bc
00000390: 209c 953c c87b 6d3c 3dfc 573d e5c4 7f3c
000003a0: d8be ee3c 3290 183d 62d0 f03c 45bb 7abd
000003b0: f39b 6ebc 688f b73c 3419 87bb 517d bebb
000003c0: 449c 213d 8237 26bd b295 173c 3c1a b63c
000003d0: fc41 5c3d 2c6d c5bc 36ef b83c 1ecd 25bd
000003e0: 483c d23c 4334 113d e441 77bd e2a2 f3bc
000003f0: 03c6 89bd b897 51bd b175 bcbc 13be 86bd
0.0007268304 0.0074797277 -0.05651807 0.048338745 0.051055357 -0.030108728 -0.06733395 0.035128444
-0.046083327 0.0100548025 0.0027033023 -0.040890824 0.028725853 0.0277743 -0.05085335 0.037404776
-0.02005142 0.04523273 -0.05181828 -0.022759452 0.03569651 0.04199894 0.008513628 0.041620743
-0.044646252 -0.03996793 0.025224157 -0.06894899 -0.0063681104 0.035289146 0.028792074 0.04670162
0.04065411 -0.05949832 -0.0032126503 -0.06392428 -0.025965676 -0.027221683 0.04883025 -0.03084381
-0.0016637031 -0.020209666 0.01896191 -0.023730882 -0.04358546 -0.0009940831 0.036287457 -0.04877911
-0.049966935 0.008569433 -0.028971622 0.017692134 -0.011865671 -0.02402455 -0.009057336 -0.01582433
-0.023086064 -0.008613859 0.019290682 0.03966134 0.038634643 -0.04793461 -0.05383651 -0.021203976
-0.04412887 -0.009274829 0.029511085 0.04943395 -0.004479165 -0.066097595 -0.06250339 -0.053128764
0.051629554 -0.0076324358 -0.024954688 -0.01937931 -0.06824583 -0.0008850232 -0.018052602 0.00981473
0.0033625655 -0.043660562 0.02160589 0.017064596 0.029286686 0.009738145 -0.049578816 -0.0028393853
0.009054726 -0.007800845 -0.041205734 0.03704362 0.02401838 0.048839647 0.024622321 -0.023855742
-0.066027544 -0.047908593 0.041739244 0.019642746 0.037304234 -0.012339668 -0.023627356 0.0014405036
-0.020692192 -0.05503849 -0.045865826 0.02070347 0.031577002 -0.061259802 0.033240393 -0.026637655
-0.033333234 0.04878093 -0.035131186 0.006062011 -0.04804997 -0.048452538 0.046276737 0.008917717
-0.027032336 -0.009122388 0.05308584 0.017630659 0.04659726 -0.03061349 -0.012609467 0.017757207
0.0033907986 0.053860985 -0.0043335347 0.03984311 0.02394582 -0.00085710356 -0.055917416 -0.011262234
0.02299736 -0.000102430655 0.035388436 -0.03478707 0.004910324 0.046871025 -0.023280008 -0.0034908801
0.040222984 0.0050975215 -0.04162704 0.055130236 0.051214717 -0.056678545 0.04366382 -0.021711117
0.029225243 -0.040453464 -0.04105353 0.046471376 -0.034484807 0.032691136 0.0056114364 -3.818615e-05
-0.015852228 0.054569446 -0.0389875 -0.045231465 0.050928615 -0.049129333 -0.04429183 0.0400656
-0.0287382 -0.020701773 0.045408256 0.05130289 0.045693014 -0.010400078 -0.044261806 0.054633398
0.030105958 -0.036286376 0.00032056597 -0.02211595 -0.05564074 0.018105246 -0.029442172 0.003380297
0.024807412 0.03670784 -0.005431752 0.032596428 -0.009653373 0.00088179397 -0.067454964 -0.039719775
0.02929007 -0.029479649 -0.046194937 -0.03857494 0.031543866 -0.04916537 -0.028581971 -0.062738016
-0.061514717 0.0095007615 0.025642112 -0.032403 -0.044892363 -0.049330756 -0.016024766 0.016497752
0.01688166 -0.057193678 0.026996605 0.016853014 0.019357804 0.045707915 -0.05702277 0.029000828
-0.0026409975 -0.06707194 0.03343061 0.0075363624 -0.046953525 -0.05853522 -0.049127467 -0.04280982
0.058062058 0.018801672 -0.054060005 -0.02658085 0.018262923 0.014494844 0.052730788 0.015610908
0.029143736 0.03724689 0.02939624 -0.06121375 -0.014563548 0.022407249 -0.0041228775 -0.0058132787
0.039455667 -0.04058028 0.009251999 0.022229306 0.053773865 -0.024099909 0.022575002 -0.040478818
0.02566351 0.03545023 -0.060365573 -0.029740755 -0.06727221 -0.05117008 -0.023005338 -0.065792225

fc1.bias f4 [120]
00000000: 9f16 0abd 59fb 803c 4fd6 40bd 6a64 253d
00000010: 00f3 58bd 73f9 6dbd 2962 fa3b 7c03 053d
00000020: cbd6 0d3d 5533 d4bc 71bb c23b 90aa a03c
00000030: 94d5 c93b 3ebd c63c 6370 cabc a41f 2ebd
00000040: bdfc 213c 1905 af3c 1627 b2bc 570d cbba
00000050: 2f4e 4f3c d779 3dbb 2545 e0bc 2112 813c
00000060: 312c a5bc 3d13 b43c 8b56 38bd e365 43bd
00000070: 7bf3 cdbc c076 e7bc b288 7bbc 8367 5e3d
00000080: d0d2 bc3b 73ad 453d 8474 31bc a3a0 003d
00000090: 078c 263d 76cd 2bbd 7269 4a3c fe38 10bd
000000a0: 8ee0 80bb b0b3 0e3d 3771 893d baa2 943c
000000b0: 70e8 0cbc e697 9f3c 42e2 83bc 4a36 b23c
000000c0: 9d49 63bb 4859 8e3c 4544 83bd 7b22 1b3d
000000d0: e409 58bc 593f c73c 1cf1 4a3d 0037 87bd
000000e0: a709 b83c 81fb 5b3d 1d0c 733d 9da3 0f3d
000000f0: 0e4f a13c eec7 0ebd f595 79bc 79d9 89bd
00000100: d7e3 adbc aef5 96bd 4937 1f3d 8b8a 54bd
00000110: 502a 06bd e6a1 17bd 614c 11bd be50 26bd
00000120: ba15 ef3c 279e 7c3d b20a 3fbc 0201 0f3d
00000130: 5a27 9db9 bd09 85bc 4274 d53c 74f9 b73c
00000140: 2114 a7bb 8bd6 25bc 9973 d3bc 31ff ae3c
00000150: 7c56 6a3c a965 3e3c 9caa 59bc f3f5 db3c
00000160: 3cd0 753d beae 893c 0c27 9c3c b19e 483d
00000170: 3c58 53bd c16e 9e3d 819d 1d3d 4bf8 6c3d
00000180: c83a 3c3d 70ce 943c 83a3 ffba 4adb b4bc
00000190: 0fb2 e33c 0b90 253d 1cb9 973d bd4b 7cba
000001a0: bfe5 9f3b 4c45 dc3c 87a4 44bc 1a06 003c
000001b0: f2b9 8d3d 8c32 6ebb 6edf bc3c 22a1 ebbb
000001c0: 34e6 0c3c d0c7 1cbd 562b 20bd 6ec6 8c3c
000001d0: 963e 8b3d e741 4dbd 3c80 37bb 774f 8c3d
-0.03371298 0.015744852 -0.04707938 0.040378965 -0.052966118 -0.05809922 0.007641096 0.032474026
0.03462867 -0.025903383 0.005942755 0.01961258 0.0061594937 0.02426016 -0.024711793 -0.042510644
0.009886918 0.021364735 -0.021747153 -0.0015491646 0.012652918 -0.0028911734 -0.02737672 0.015755715
-0.020162674 0.02198183 -0.04500441 -0.04770459 -0.025140515 -0.028254867 -0.015352415 0.054297935
0.0057624355 0.048261117 -0.010831002 0.031403195 0.040660884 -0.04194399 0.012354242 -0.035210602
-0.003933019 0.034839332 0.06711047 0.018144 -0.008600339 0.01948161 -0.0160991 0.021754403
-0.0034681328 0.017376557 -0.06409506 0.03787468 -0.013185952 0.024322199 0.049546346 -0.06602287
0.02246554 0.05370665 0.059337724 0.035068143 0.019691017 -0.034858637 -0.015233506 -0.06730933
-0.021226807 -0.073710784 0.038871083 -0.051889937 -0.032755196 -0.037019633 -0.03547323 -0.040604346
0.029185165 0.061674263 -0.011660265 0.03491307 -0.00029974693 -0.016239995 0.026056413 0.022457816
-0.005098835 -0.010121952 -0.025811957 0.02136192 0.014302846 0.011620917 -0.013285305 0.026850676
0.06001304 0.016806956 0.019061588 0.048979465 -0.05159782 0.077359684 0.038480286 0.057853978
0.045954496 0.018164843 -0.0019503686 -0.022077221 0.027794866 0.040420573 0.07408354 -0.0009624323
0.004879683 0.026888512 -0.012002117 0.007813955 0.06920232 -0.0036346046 0.023055758 -0.0071908394
0.008599807 -0.038276494 -0.03910383 0.017184462 0.06799047 -0.050111677 -0.0028000018 0.06851094

fc2.weight f4 [84, 120]
00000000: 5c97 90bd 3772 363d 9785 13bc e142 7b3d
00000010: d9b8 4ebd 791c 68bc de74 04be 6d58 093d
00000020: 8d47 143d c6f1 4a3d 3bc6 6ebd 6b33 af3d
00000030: dccf 3f3d 393d 5dbd 3059 9e3d cea3 adbc
00000040: d7ef 7d3d 63b1 fbbc 3bb5 a53d e7c6 a43d
00000050: 085d 063b ffe6 70bd 7021 213d df3e a9bc
00000060: c7db 923d 4ce2 ac3d 10b5 943d 1b64 a1bc
00000070: d3bf 633c 9948 7e3b a6c7 dc3b 4c23 fdbc
00000080: e58b c83d 7cfe 24bd d9f4 7bbc 6f76 52bd
00000090: ccec cabd 0216 073e 509e e83b 805a ea3d
000000a0: ad37 a33d 364f cdbd 4734 a63c f440 a53c
000000b0: b859 a03b 11ec 46bd f872 543d 7e26 c73c
000000c0: 06f6 063d d7f6 e33d 42d7 abbc 96e0 55be
000000d0: 9d63 0fbe 8a55 1ebd b4e4 8ebd 36b0 ddbc
000000e0: 6862 b03d edab f8bd 35a6 0cbe 65a5 4abc
000000f0: 9151 aebc ac98 003e 6093 0e3d c2ec bdbc
00000100: c423 a7bd 91f0 6b3d 9f99 e4bb c438 e5bd
00000110: 348d 253d 7c1f 1abe a09f 93bd c658 243d
00000120: 5ef0 293d e099 0cbd b2fb 83bd 5c35 4b39
00000130: dd55 843d 17fe f33d 2501 16bd 7324 8abd
00000140: bc8e 7ebd b7ca 85bd 68a7 e73d b587 f83c
00000150: baa0 a4bc ef11 4ebd 028b 22bc 7fc6 873d
00000160: cc47 87bd 8cb6 903d 9723 85bd f5e8 99bc
00000170: d929 283d 1f05 8d3d 50a2 5ebd 5e20 903d
00000180: b122 a53c 9bec 51bd 04f7 2abd f80f 2dbd
00000190: 47eb 04bd 32ed a5bd 61c1 02bb 4c2d a0bc
000001a0: cd5d 9b3d 24f3 803d c7ed 7bbc be06 8abd
000001b0: 484b 62bc 609b 92bb 9219 603b e126 ec3c
000001c0: 5d27 e73d f7cb c8bc 0d43 d23d 5cba d3bd
000001d0: 0a0a 933d 4067 ef3d 703b 813d fb17 3d3d
000001e0: dbb5 ac3c 8806 9dbd 94f0 66bd 1418 fe3d
000001f0: 6078 c63b 2370 c83c 9e9e 603c 6391 50bd
00000200: b796 4dbc 7509 d4bd a133 c73d 075a a13b
00000210: 7d11 d9bc 2c25 9a3d fc8e 253c 6a30 6c3d
00000220: a61d 88bd 188c ceba acc4 453d a223 d7bc
00000230: 3c5e 1b3e c697 4d3d 1dbe febd d948 42bd
00000240: c25a 833d f6c8 adbd 00e7 b23d 80f4 b9bd
00000250: 26dc 79bc 4273 5cbd 0222 8f3d a29d a43d
00000260: 16e8 54bc f020 9f3d debe 2a3d ef7d b0bd
00000270: b642 b6bc 6eaa ed3c 9e90 c2bd 2245 053e
00000280: d1a7 743d 8b31 063c 1090 91bd d04e 29bd
00000290: a629 b13b c068 2e3c 1787 0ebd 2640 583c
000002a0: 13c1 15bd 5de6 053c e405 883d 3109 843b
000002b0: 0af1 4e3d acd7 8dbd eaff 55bc e066 bdbd
000002c0: a58e 8f3d 2cf9 a53d 4abf f6bc af19 02bd
000002d0: ae07 653d efc6 6f3d 2598 913c c9da c43d
000002e0: 05f9 07bd c369 f7bd 93f9 45bc 57f1 9d3c
000002f0: 4d84 d63d 8de7 1f3d dd92 93bc d724 e33d
00000300: 1ea9 0ebc 5452 3e3c f4b3 223d d74c 94bd
00000310: 66e4 823d 1958 efbc fa6b 8abd ff50 603d
00000320: ab53 b93c fa76 76bc 822b 5fbd f3b0 933c
00000330: 5f91 4d3d b93e e63c d34f 59bc 4c0e 193d
00000340: 2c48 e3bb 5c3c 17bc adee f3bc a751 1bbc
00000350: 4965 b23d 7a92 f4bd 1c62 b2bd 4ec6 0e3e
00000360: cc47 7e3d 9590 d93d ed8b 72bc 773b 24bd
00000370: 409e 9ebd 8044 b93d f85b 9ebd 9273 1c3e
00000380: c073 ac3d 64f7 8d3d d456 77bd ad11 6cbd
00000390: af93 eebd 7fff c53c 58ae 523d 41e1 78bd
000003a0: 960a bc3c ea43 623d 2e67 303c 68a7 7e3d
000003b0: 54ce b03c 345c b8bd 56c8 adbd 05be 963d
000003c0: 3dd1 b0bc 0dec f13d 6b4c c93d ec5f 413d
000003d0: 0168 0dbc f18c dd3c dcda bd3d 94a3 d63d
000003e0: a692 42bd cef7 c93d 8ff8 83bc cfbd b73d
000003f0: 772a b6bd 3097 f3bd dffb debd ca3e 173d
-0.070601195 0.044542518 -0.009004018 0.061343078 -0.050469253 -0.014166945 -0.12935206 0.033531595
0.03620105 0.04954698 -0.058294516 0.08554729 0.04682909 -0.054013465 0.07731855 -0.021196272
0.061996307 -0.030724233 0.080912076 0.0804575 0.0020502228 -0.058814045 0.03933853 -0.020659862
0.071708255 0.084416 0.072610974 -0.019701054 0.013900715 0.0038800596 0.006737667 -0.03090062
0.09792308 -0.040281758 -0.0153782 -0.05138248 -0.09908447 0.13191989 0.0070989504 0.11443043
0.07969604 -0.10024874 0.0202886 0.020172574 0.004893508 -0.048564974 0.051867455 0.024310347
0.03294947 0.11131065 -0.020976666 -0.20886454 -0.14002843 -0.038655795 -0.069772154 -0.027061563
0.086125195 -0.12142167 -0.13735278 -0.012368535 -0.021279128 0.1255824 0.034808517 -0.023184184
-0.081611186 0.05760247 -0.006976321 -0.11192468 0.040417865 -0.15051073 -0.072081804 0.040123723
0.041488998 -0.034326434 -0.064444914 0.00019379467 0.064616896 0.11913698 -0.036622185 -0.067452334
-0.06214784 -0.065328054 0.11311227 0.030338148 -0.020096172 -0.05031007 -0.009920837 0.06629657
-0.06605491 0.07066068 -0.06500929 -0.01878784 0.041055534 0.068857424 -0.054354012 0.070374236
0.020158144 -0.051251035 -0.04173948 -0.042251557 -0.03245094 -0.08101882 -0.0019951689 -0.01955285
0.075862505 0.062963754 -0.015376515 -0.06739567 -0.013811894 -0.0044740885 0.0034194929 0.028827133
0.11286805 -0.02451132 0.10266695 -0.103382796 0.07179649 0.11689615 0.06310165 0.046165448
0.02108281 -0.07667261 -0.056381777 0.12406936 0.0060568303 0.024467533 0.013709692 -0.0509199
-0.01254814 -0.10353366 0.09726644 0.004924062 -0.026497597 0.07526621 0.010104891 0.05766336
-0.0664628 -0.0015758304 0.048283264 -0.026262108 0.15172666 0.05019357 -0.12438605 -0.047432754
0.06413795 -0.08485596 0.08735466 -0.09079838 -0.015250241 -0.053820856 0.06988908 0.080378786
-0.012994787 0.07769954 0.04168593 -0.0861777 -0.022248607 0.029011931 -0.0950024 0.13014653
0.059730355 0.008190523 -0.07107556 -0.041334927 0.005406576 0.0106450915 -0.0347968 0.013198888
-0.036561083 0.008172599 0.066417485 0.004029416 0.05052284 -0.06925902 -0.013061503 -0.092481375
0.07009629 0.081041664 -0.03012051 -0.031762775 0.055915527 0.058539327 0.017772743 0.096120425
-0.033196468 -0.12080719 -0.012083429 0.019280119 0.10474453 0.039039183 -0.018014366 0.11091011
-0.008707313 0.011616308 0.039722398 -0.072412185 0.0639122 -0.029216813 -0.06758876 0.054764744
0.022622904 -0.015043015 -0.05448485 0.018028712 0.050187465 0.02810608 -0.0132636605 0.03736715
-0.006936094 -0.009230699 -0.029776895 -0.009479917 0.08710725 -0.11942001 -0.08710119 0.13942835
0.06208019 0.1062328 -0.014803869 -0.040095773 -0.077450275 0.090462685 -0.077323854 0.15278462
0.08420515 0.06931952 -0.06038554 -0.057634044 -0.11649262 0.024169682 0.0514358 -0.060761694
0.022954267 0.05524055 0.010766787 0.06217137 0.02158276 -0.09001961 -0.08485477 0.07360462
-0.021584148 0.11812601 0.09829029 0.04721062 -0.0086307535 0.027044745 0.0927026 0.10480419
-0.047503136 0.09861718 -0.016109733 0.0897175 -0.08894818 -0.11894071 -0.10887884 0.036925115

fc2.bias f4 [84]
00000000: 3033 2f3d a39d 37bd 8bbd cc3d d952 793c
00000010: 1720 073d 08d9 98bd 4d54 f93c 9c1e 88bd
00000020: 1d05 dd3d d021 0b3c 20fd c73d 5bc6 08bc
00000030: c320 2c3d e52c 5fbd 1d91 b1bd cf53 683d
00000040: dc7c 91bd f411 91bd eaba 9e3d 6bc6 fd3c
00000050: 949b 4c3c 49e5 b33b 24ef 13bd 45d6 923d
00000060: 8437 bf3c c809 c03c 9be4 a83d 2459 8fbd
00000070: 0914 afbd 8019 adbd 6b52 1e3d bc89 813d
00000080: faba 11bd 8a68 2b3d 9fd7 953d 725a 3c3d
00000090: f16d 973d f448 c43d 165a 78bd 1461 ce3d
000000a0: 5cc0 8bbd 3967 553d cdc0 ca3d 0b86 8ebd
000000b0: 14dc 97bd 6d96 92bd 1027 02bd 9668 a13d
000000c0: cc52 173d 042b 993d 103e b7bd c0f5 d2bb
000000d0: 9d98 62bd cd39 b9bc acaf 903c 42bc b7bc
000000e0: 2548 613d 51f6 173d f9a7 b43d ed9a 14bd
000000f0: e6e6 b03d 59d0 a2bd ee1e c2bd 840c f13c
00000100: e162 c3bc 5f6b ca3d 6089 7d3d 65c0 a43d
00000110: ac73 183c c995 cd3c 4e98 353d fa0d 5e3d
00000120: c6ac 313d d491 b4bb 9444 75bd d71b 0c3d
00000130: 05b5 e9bc d6b6 953d 265b 043d bc6e 39bc
00000140: 5b66 bf3d 0993 833d 7a0d 93bd 18b7 913d
0.042773426 -0.04482807 0.0999709 0.015217506 0.032989588 -0.074632704 0.030435706 -0.06646463
0.10791991 0.008491948 0.09765077 -0.008348073 0.04202343 -0.054486174 -0.08670256 0.05672055
-0.07103893 -0.070835024 0.07750495 0.030978402 0.012488265 0.0054899794 -0.036116734 0.07169775
0.023341902 0.023442164 0.08246728 -0.06999424 -0.08548743 -0.08452129 0.03865282 0.06325099
-0.035578705 0.041847743 0.07316517 0.045984693 0.073940165 0.09584227 -0.060632788 0.1007711
-0.06823799 0.052100394 0.09900055 -0.069591604 -0.074150234 -0.07157598 -0.031775534 0.07881276
0.036944196 0.07478908 -0.08947384 -0.006437987 -0.055321325 -0.02261057 0.017661892 -0.022428636
0.055000443 0.03710014 0.08821101 -0.03628056 0.086377904 -0.079498954 -0.094785556 0.029424913
-0.02385086 0.09883761 0.06189859 0.08044509 0.009304922 0.025095837 0.044334702 0.054212548
0.04337766 -0.005510548 -0.059879854 0.034206238 -0.0285287 0.07310264 0.03231349 -0.011317905
0.09345695 0.06424529 -0.07180305 0.071150005

fc3.weight f4 [10, 84]
00000000: 5fcf 0dbd 95ab a5bd 2942 103e d961 0f3d
00000010: d1da 0c3e fed0 6b3d cdd9 edbd 28ba 8c3c
00000020: 90ce 2e3e b4a5 b83d 8309 acbd 0a7b 1bbe
00000030: 484f 8f3d 7598 a8bd 8181 0cbd d09d fc3d
00000040: 4915 91bd e10d 84bd a597 90bd 7076 5f3d
00000050: 1a7e 5bba 6a5f 5d3b 15be b5bc c1fc 4abd
00000060: dc1c cb3d a70a fcbc 34fd d53d 745c d3bd
00000070: b5da 72bd a770 6cbd 2508 e33a 08b1 9dbd
00000080: ed66 21be 14b0 f2bd 3858 40bd df11 d03d
00000090: 42bf 4d3d d26f 073e 9aef 08be 35e7 01be
000000a0: fc4d d93c 5e3a 11bc 7b7c be3d 9a4e 413d
000000b0: 85fd e3bd 6416 85bd deb7 3fbd 0075 30bc
000000c0: 9b82 edbd 5fd9 9c3c acf6 a6bd 7962 33bd
000000d0: fd57 efbd abc4 87bd cb90 8bbd b30d 01be
000000e0: 5a6c 18be afdb e8bc fae3 d63d 08b9 1fbc
000000f0: 535c 07be 3c70 cebd 8d9f 573d 244b c73d
00000100: 1e21 ab3d e4d2 563d a5fc 35be 25ce 71bd
00000110: 48b8 a0bd b9b4 903d 2c98 c23d 9660 d23d
00000120: 3635 19bd 0490 00be a3f1 94bb 42de 2fbe
00000130: a0f6 143e a274 223c 6080 8cbc 99eb 8f3d
00000140: b25f d63d a496 003d 8973 dbbd 05d8 f7bd
00000150: d5ee 54bd 3988 1bbe 60e4 7f3d 8f1f 0dbe
00000160: 55e7 f8bd e7e1 0d3e f276 aebc c787 a63d
00000170: 65f6 313d be50 78bd 362e 95bd 9521 3abe
00000180: 420b 96bd 5bd7 4fbd 2d85 49bd 81d5 35bd
00000190: cd58 b23d 0425 fc3c ac27 b63d ca5e 473c
000001a0: e483 cb3d e2cc 283b d06f 143c dcb7 eebc
000001b0: 88a3 1f3e 3764 20bd 281a b23d 8249 31bc
000001c0: 2a9c c73c fa74 47bd 28ba 1e3e 2d8f 4cbd
000001d0: 1b7e 83bd 9c89 1d3d 3d1e 8f3d 3e19 02be
000001e0: a351 92bd 6057 28bd 7330 f83c 3b19 253e
000001f0: 1655 88bd 539e 64bd 6653 41be 1d6f 42be
00000200: 4b93 8bbc 9fdd c13b 0d98 c63c 9ad3 c3bc
00000210: f91c a7bb e0a3 25be 7635 68bd 38f5 533d
00000220: 0247 8f3b 95f6 51bd 639c 23be 96f8 823d
00000230: 99f4 25bc 82fb 0ebe d601 1bbe ea27 23bd
00000240: c169 f93c 594e bebd 6b87 5b3c cbba c5bb
00000250: d474 183e c5b8 c3bd af29 943d 2c00 31bd
00000260: 084e febc 40e7 c0bc ecce 82bd ac3b 6cbd
00000270: a4ae b7bd 63fe 273e ad3e f3bd 805a f83d
00000280: 60fc 06be 617c b3bd bd40 a2bd 5d35 86ba
00000290: feec 093e 7123 4e3d 9659 1cbe a68c 2dbd
000002a0: 6e4f a0ba a643 35bb 218d d3bd 0017 bb3c
000002b0: 77a4 03bd 8e3a 153e 2abe 1a3d 87ea b73d
000002c0: 0142 ad3d cd89 c5bb 2b43 5e3d 9efb 8a3d
000002d0: afff 843d 9270 b7bc 337e a5bd d889 823d
000002e0: a8f3 883d 1dba 9f3c d1d3 5abd a193 833d
000002f0: 3d81 69bd 7a09 9d3d d6ae b13c e5cf efbb
00000300: f025 9fbd 8a43 1ebd b95d 883d 57ab 1d3c
00000310: 72c0 8b3c 1d33 02be 829d ccbd dad4 f1bd
00000320: 0c18 0bbe 83b2 983d 6a98 37be b825 a93c
00000330: ad08 61bd 9783 0ebe e578 0b3d 5c03 b3bd
00000340: dc20 23bd c6ad e83d 5da1 383d 332a debd
00000350: 8307 0cbe 6cca b8bd 0537 c13d 197f 6fbd
00000360: 9a8e d33d 2038 bebd 7dcb d33c f9dc 02be
00000370: 0290 17be 90e8 18be 95d7 523d 366a cbbd
00000380: eaaa 963d fb44 eebd 4517 e2bd dc92 333d
00000390: 8531 dd3d 41e8 48bd 4266 56bd 197c c3bc
000003a0: d50c fabd a263 593c 4480 f7bc 8aef 083e
000003b0: c5af 9fbd 2e9d 6abd ebdf 863d 5b0a 1e3d
000003c0: c1f2 e83c 1d27 043e 3cf6 00be 8c94 cb3d
000003d0: b88f 033e 0fbd c13d 47c5 0d3e 78a9 c33b
000003e0: 2fcd 163d 9a4b 93bc d463 f5bd 6bf6 0b3e
000003f0: c2c3 fa3d 72cd c0bd 3d62 f73d dc4d fabd
-0.034621593 -0.08089367 0.14087738 0.035005424 0.13755347 0.057572357 -0.11613808 0.01717861
0.17070985 0.0901598 -0.08400252 -0.15183654 0.069975436 -0.08232204 -0.034303192 0.12334788
-0.07084138 -0.0644796 -0.07060174 0.05455631 -0.00083729776 0.0033778795 -0.022185365 -0.04955745
0.09917614 -0.030766798 0.10448685 -0.103203684 -0.059290607 -0.05772462 0.0017321153 -0.07699782
-0.1576192 -0.118499905 -0.046959132 0.10159659 0.050231226 0.1322625 -0.1337265 -0.12685855
0.026526444 -0.0088640135 0.093010865 0.0471941 -0.111323394 -0.06498411 -0.04680621 -0.0107700825
-0.11597177 0.01914662 -0.08152518 -0.043795083 -0.11686704 -0.06629308 -0.068147264 -0.12602882
-0.14885083 -0.028425066 0.10492702 -0.009748705 -0.13218813 -0.10080001 0.052642394 0.09731129
0.08355926 0.052447215 -0.17772157 -0.059034485 -0.07847649 0.0706572 0.09501681 0.102723286
-0.03740426 -0.12554938 -0.004545407 -0.17174628 0.14547205 0.009915503 -0.017151058 0.070273586
0.10467471 0.031393662 -0.10715396 -0.12101749 -0.05198558 -0.15188684 0.062473655 -0.1378157
-0.12153498 0.13855706 -0.021296952 0.08131366 0.04344787 -0.060623877 -0.07284205 -0.18176873
-0.07326366 -0.05074249 -0.049199272 -0.044393066 0.08708344 0.03077937 0.088942856 0.012168596
0.099372655 0.0025756885 0.009059861 -0.029140405 0.15589726 -0.039158072 0.08696395 -0.010820748
0.024366457 -0.048695542 0.155007 -0.04994123 -0.06420537 0.038461313 0.06988189 -0.12704942
-0.07144477 -0.041098952 0.03029654 0.16122906 -0.06656854 -0.055815052 -0.1887947 -0.18987699
-0.017038008 0.005916312 0.024242425 -0.02390461 -0.0050998894 -0.16175795 -0.05669161 0.05174753
0.0043724785 -0.05126055 -0.15977626 0.0639507 -0.010129117 -0.1396313 -0.15137419 -0.039832987
0.030445935 -0.092922874 0.013398985 -0.0060342303 0.14888316 -0.09556726 0.07234513 -0.043213055
-0.031043068 -0.023547769 -0.063871235 -0.057674095 -0.08968857 0.16405635 -0.11877189 0.121266365
-0.13182211 -0.08763958 -0.07922504 -0.0010239292 0.13469312 0.05032677 -0.1526855 -0.04237046
-0.0012230703 -0.002765873 -0.103296526 0.022838116 -0.032139268 0.14573118 0.03777901 0.089802794
0.08459855 -0.00602839 0.054263275 0.067862734 0.0649408 -0.022392545 -0.08080711 0.06373948
0.06687099 0.019497925 -0.05342466 0.06424642 -0.057008017 0.07667823 0.021689814 -0.007318484
-0.07770908 -0.03863863 0.06658501 0.00962337 0.017059539 -0.1271481 -0.0999098 -0.11808176
-0.13583392 0.074559234 -0.17929235 0.020647869 -0.054939914 -0.13917385 0.03405084 -0.08740875
-0.03982626 0.1136127 0.045075763 -0.108478926 -0.1367474 -0.09022984 0.09434322 -0.05847082
0.103299335 -0.09288049 0.025853867 -0.12779607 -0.14801028 -0.14932466 0.051475126 -0.099323675
0.07356818 -0.11634251 -0.110395946 0.043841228 0.10800461 -0.04904962 -0.052343614 -0.023862885
-0.12209479 0.013268383 -0.030212529 0.13372627 -0.07797197 -0.057278804 0.06585678 0.038584094
0.028436067 0.12905546 -0.12593931 0.099404424 0.12847793 0.09459888 0.13844787 0.00597113
0.036816772 -0.017980386 -0.11981931 0.1366822 0.12244369 -0.094141856 0.12079284 -0.12221882

fc3.bias f4 [10]
00000000: 4f42 1d3d 2118 44bb 6cb6 ae3d acac 443d
00000010: c2af 3bbd 1c9e 3e3d 646b b5bd 2ef5 84bb
00000020: 6b0d 1bbd a5cd 9a3d
0.038393315 -0.0029921609 0.08530888 0.048016235 -0.045821913 0.046537504 -0.08858374 -0.004057548
-0.037854593 0.07558755
