model/LeNet.pth (torch, 180551 bytes, 10 tensors)

conv1.weight f4 [6, 1, 5, 5]
0	0x3dfd390a	0.12364395
1	0x3e88819a	0.26661378
2	0x3ebfa0a4	0.37427247
3	0x3f116e1e	0.5680865
4	0x3e6a4eb9	0.22881593
5	0xbdd0acf4	-0.10189238
6	0x3caf27fa	0.021381367
7	0xbd453ce4	-0.048153773
8	0x3eb0f935	0.3456513
9	0x3d8c9f04	0.06866267
10	0xbe156b6b	-0.14591758
11	0xbdd659d0	-0.10466349
12	0xbec3ee34	-0.38267672
13	0x3e475901	0.19467546
14	0x3e8642bf	0.26222798
15	0xbdb8a92f	-0.09016644
16	0xbe3a7f74	-0.18212682
17	0xbebb2d75	-0.36558118
18	0xbd0bd7da	-0.0341414
19	0x3ea5b7c5	0.32366768
20	0x3e0387d1	0.12844779
21	0x3d04f253	0.03245766
22	0x3e6ca694	0.2311042
23	0x3e86e0c9	0.26343372
24	0x3e14aead	0.14519759
25	0x3e06f280	0.13178444
26	0xbda62837	-0.08113139
27	0x3d1d4ee6	0.03840532
28	0xbddb47f0	-0.1070708
29	0x3e405ebd	0.1878614
30	0x3c6f98df	0.01462385
31	0x3cf5a811	0.029987367
32	0xbe0dab64	-0.13834912
33	0xbc76841c	-0.015046146
34	0xbd86239f	-0.06549763
35	0xbdef6b80	-0.11690426
36	0xbd96ad36	-0.07357256
37	0xbd6a7cd2	-0.057247944
38	0xbe39cdfb	-0.18144982
39	0x3cc5ca95	0.02414445
40	0xbcde28c6	-0.027119052
41	0xbe0eb4ed	-0.13936205
42	0xbe39c7dc	-0.18142647
43	0xbdc6bd61	-0.0970409
44	0x3e1a7daf	0.15087007
45	0xbd9c7cd8	-0.076409996
46	0xbc034550	-0.008012131
47	0x3d85b11f	0.06527924
48	0xbe0d4ccc	-0.13798827
49	0x3dd75107	0.105135016
50	0xbdd2c32a	-0.10291131
51	0x3e78c4df	0.2429385
52	0x3e9b9a01	0.30390933
53	0x3e57efee	0.2108762
54	0x3d679ebc	0.056547865
55	0xbcfd36d1	-0.030909928
56	0x3e20b1bb	0.15692799
57	0x3e20c61e	0.15700576
58	0x3e762f26	0.24041423
59	0x3ea33424	0.31875718
60	0xbe591131	-0.21197964
61	0xbea2a425	-0.31765857
62	0xbd618b41	-0.055064443
63	0x3d8d5839	0.06901593
64	0x3e6d4c66	0.23173675
65	0xbe75f293	-0.24018316
66	0xbe22b538	-0.15889442
67	0xbe9652ec	-0.2936014
68	0xbeb9a2ae	-0.36256927
69	0x3e62ce8a	0.22149101
70	0x3ca31451	0.019907149
71	0xbda51893	-0.08061328
72	0xbdbdc948	-0.09266907
73	0xbde23f6c	-0.11047253
74	0xbdf35989	-0.11882312
75	0x3e6ca459	0.23109569
76	0xbe50d51b	-0.20393793
77	0xbe43872c	-0.19094533
78	0x3d85d82c	0.06535372
79	0x3e39317f	0.18085288
80	0xbdd379f2	-0.103259936
81	0xbe42abb2	-0.19010809
82	0xbe063b51	-0.13108565
83	0xbcfe7c90	-0.031065255
84	0x3ea8bd3a	0.32956868
85	0xbd286832	-0.041114993
86	0xbea456b5	-0.32097402
87	0xbe145626	-0.14485988
88	0xbe0380c4	-0.12842089
89	0x3ee34cd9	0.44394568
90	0xbe7da8f5	-0.24771483
91	0xbe5425a3	-0.20717482
92	0xbd0fe33d	-0.03512882
93	0x3d7a474d	0.061103154
94	0x3ed11386	0.40835208
95	0xbda0ed5b	-0.07857772
96	0xbc8527e0	-0.016254365
97	0xbd9ef77a	-0.07762046
98	0x3e352307	0.17689143
99	0x3dbc70f7	0.09201234
100	0xbda498e9	-0.08036978
101	0xbad9cd38	-0.0016616946
102	0x3e507f25	0.20361002
103	0x3e92febf	0.2870998
104	0x3c09d2b8	0.008412056
105	0xbdc4a3b3	-0.09601536
106	0x3f154fd1	0.58324915
107	0x3e91bf59	0.284663
108	0x3ee9c75a	0.45659906
109	0x3ea01458	0.3126552
110	0x3e9b9b0a	0.30391723
111	0xbd2a4cc4	-0.041577116
112	0xbde1718c	-0.110079855
113	0xbdf7ed13	-0.12105765
114	0x3df291ed	0.118442394
115	0x3cd02f67	0.025413228
116	0xbe36b950	-0.17844129
117	0xbec5ab59	-0.3860729
118	0xbef1e50c	-0.4724506
119	0xbe960e64	-0.29307854
120	0x3d563b0f	0.052302416
121	0xbd8c1245	-0.06839422
122	0xbe2168bc	-0.15762609
123	0xbdff77bb	-0.12474009
124	0xbe26c094	-0.162844
125	0x3ea96283	0.3308297
126	0x3dd0b826	0.101913735
127	0x3dcbffea	0.09960921
128	0x3db6e57f	0.08930492
129	0x3e21944b	0.15779226
130	0xbe6f9427	-0.2339636
131	0x3d9b0370	0.07569015
132	0xbbb0510a	-0.0053807544
133	0xbdc8a307	-0.0979672
134	0x3d0c702c	0.034286663
135	0xbeb1f00f	-0.34753463
136	0xbe78d647	-0.2430049
137	0xbd7c2262	-0.061556228
138	0xbd22a061	-0.03970373
139	0xbcc71f42	-0.024306897
140	0xbe948f67	-0.29015657
141	0xbe8cc04b	-0.27490458
142	0xbea31c91	-0.31857732
143	0xbe90e33d	-0.2829837
144	0xbe9e44b8	-0.30911803
145	0xbcccec32	-0.02501497
146	0xbbcbd4b6	-0.0062204255
147	0xbdc8f900	-0.09813118
148	0xbda17045	-0.07882742
149	0xbe2f5ae5	-0.17124517

conv1.bias f4 [6]
0	0x3de49b09	0.11162383
1	0xbe9c7312	-0.30556542
2	0xbe1c9448	-0.1529094
3	0x3d011d9d	0.031522382
4	0x3e771de4	0.24132496
5	0xbf19b797	-0.6004576

conv2.weight f4 [16, 6, 5, 5]
0	0xbddf70fe	-0.109102234
1	0x3d06b740	0.032889605
2	0x3cfc6108	0.030807987
3	0xbd1b95e3	-0.03798474
4	0xbeaffdce	-0.34373325
5	0x3dc4239d	0.09577105
6	0xbcd765e2	-0.026293699
7	0xbe0952e1	-0.13410522
8	0xbde0b192	-0.10971369
9	0xbec86b72	-0.39144474
10	0xbcebea8f	-0.02879837
11	0xbe90fc8d	-0.2831768
12	0xbe70064f	-0.23439907
13	0xbd1878d3	-0.037224602
14	0xbb1c0bf6	-0.002381084
15	0xbde3213c	-0.11090323
16	0xbd94c0f4	-0.072633654
17	0x3ba08405	0.0048985505
18	0x3d381a70	0.044947088
19	0x3dc246f2	0.09486188
20	0x3d562653	0.052282643
21	0x3cd363b1	0.025804373
22	0x3e563c06	0.20921335
23	0x3db35ff0	0.08758533
24	0x3da937d1	0.08262599
25	0x3d45ae09	0.048261676
26	0x3d56c161	0.052430514
27	0x3ba23e90	0.0049513057
28	0xbd467b36	-0.048457347
29	0xbd81d401	-0.06339265
30	0xbd495a2a	-0.049158253
31	0x39520d41	0.00020032098
32	0xbdd907a2	-0.10597159
33	0xbd87b44a	-0.06626184
34	0xbdf180a2	-0.11792113
35	0x3dcc93b1	0.099891074
36	0x3be67362	0.0070327977
37	0xbe8bd4bc	-0.2731074
38	0xbd1633da	-0.036670543
39	0xbca066d8	-0.01958029
40	0xbd6ca0c7	-0.057770517
41	0xbe27f65a	-0.1640257
42	0xbe16350b	-0.14668672
43	0xbd6d440c	-0.057926223
44	0x3c84e8f8	0.01622437
45	0xbdfe7716	-0.124250576
46	0xbe31cefd	-0.17364116
47	0x3cae9d5c	0.02131527
48	0x3dc279a7	0.094958596
49	0xbcbf635c	-0.023362808
50	0xbce3346e	-0.027734961
51	0xbdca4502	-0.098764434
52	0x3a8e2a38	0.0010846322
53	0xbda0dd87	-0.07854753
54	0xbdd5f1f5	-0.1044654
55	0xbe483ed4	-0.19555217
56	0xbeb7c5ae	-0.35893005
57	0xbeca97a2	-0.39568812
58	0xbd97e48c	-0.07416639
59	0xbdafca62	-0.08583523
60	0xbe2e0aeb	-0.16996352
61	0xbddf4b22	-0.10903002
62	0xbc580e91	-0.013187067
63	0x3e66f37d	0.22553821
64	0x3e695a3a	0.22788325
65	0xbd4e2631	-0.05032939
66	0xbb75d98a	-0.0037513697
67	0x3dc17ca2	0.094476
68	0x3dc6d1b5	0.09707967
69	0x3df67d9f	0.12035679
70	0x3d8eba0a	0.06969078
71	0x3d11b41a	0.03557215
72	0x3d2bc465	0.041935343
73	0x3d72ed25	0.05930819
74	0x3e3fef6f	0.1874368
75	0x3d022913	0.031777453
76	0xbd92a7d2	-0.071609154
77	0x3dacd83b	0.0843968
78	0x3d882e09	0.066494055
79	0x3d950f24	0.072782785
80	0x3d1418a7	0.036156323
81	0x3d9b6f5c	0.075895995
82	0xbd7f37c8	-0.062309057
83	0xbe1b3fba	-0.15161029
84	0xbe75e76b	-0.2401406
85	0x3e0325fc	0.12807459
86	0xbe0271ce	-0.12738726
87	0xbe9ef89e	-0.31049055
88	0xbecaa125	-0.3957607
89	0xbd002373	-0.031283807
90	0x3e1f475f	0.1555457
91	0xbdb5b433	-0.08872261
92	0xbe98927b	-0.29799256
93	0xbd6f00ed	-0.058350492
94	0xbd849c25	-0.06475095
95	0x3d10cdf1	0.03535265
96	0xbca37dad	-0.019957388
97	0xbd832010	-0.064026
98	0xbd9d2d05	-0.076746024
99	0xbca33458	-0.01992242
100	0xbd0745ec	-0.033025667
101	0x3cff7ed4	0.031188406
102	0xbc25289b	-0.010080482
103	0x3e0f22a7	0.13978063
104	0x3df46c42	0.11934711
105	0xbe845735	-0.25847784
106	0xbe9fc8cc	-0.31207883
107	0xbd0883f7	-0.033328976
108	0x3e183896	0.14865336
109	0x3e1970de	0.14984462
110	0xbd7377cf	-0.05944043
111	0x3e2c3331	0.16816403
112	0x3ea38ffc	0.3194579
113	0x3e85d7f8	0.26141334
114	0x3d5956b0	0.053061187
115	0xbca07555	-0.019587198
116	0x3e20b59f	0.15694283
117	0x3e38b7aa	0.18038812
118	0x3c86c2e7	0.016450359
119	0x3dec2030	0.11529577
120	0x3d001e6a	0.031279005
121	0x3c98a4ef	0.018633334
122	0xbd375f1b	-0.044768434
123	0xbd48fa89	-0.049067054
124	0xbc139571	-0.009007798
125	0xbc6e1440	-0.014531195
126	0xbdf46ff7	-0.11935418
127	0xbd4c0066	-0.049805067
128	0xbdf945b4	-0.12171498
129	0x3c308efb	0.010776277
130	0xbc3a0174	-0.0113528855
131	0x3d0ed7fc	0.034873948
132	0xbd89520a	-0.06705101
133	0xbd0f8cf0	-0.035046518
134	0x3e0cc0b7	0.1374539
135	0xbde1eaf2	-0.110311404
136	0xbe8a04a0	-0.26956654
137	0xbddb0fc2	-0.10696365
138	0x3e65f221	0.22455646
139	0x3e24c159	0.16089381
140	0xbe202166	-0.1563774
141	0xbd3f1df4	-0.046659425
142	0xbb2300ba	-0.002487226
143	0x3d703992	0.058648653
144	0x3e2c3d7e	0.16820332
145	0xbe202ba2	-0.15641645
146	0xbde921f4	-0.11383429
147	0x3d285bef	0.0411033
148	0x3d5f7cb4	0.054562286
149	0x3d85e421	0.06537653
150	0x3787e05c	1.619773e-05
151	0x3e872ced	0.26401463
152	0x3e2b398e	0.16721174
153	0x3d33bdba	0.04388211
154	0xbe1502ef	-0.145519
155	0x3d6415ec	0.05568497
156	0x3e38d5ed	0.18050356
157	0x3baaab91	0.0052084406
158	0xbe34cbda	-0.17655888
159	0xbe294e0e	-0.16533682
160	0xbd8312aa	-0.06400044
161	0x3d826f2e	0.06368862
162	0x3e4e6060	0.20153952
163	0xbc1bcd8f	-0.009509458
164	0x3df0ab1d	0.11751387
165	0x3e3f058b	0.18654458
166	0x3d5dfed4	0.0541981
167	0x3e2b406f	0.16723798
168	0x3cad9f38	0.021194085
169	0xbe10743c	-0.1410684
170	0x3dac9b9c	0.08428118
171	0x3db7cd41	0.08974696
172	0x3d5a3c14	0.05327995
173	0x3d101e3b	0.03518508
174	0xbda1f7ca	-0.0790859
175	0x3d891778	0.066939294
176	0x3d942303	0.072332405
177	0xbd141320	-0.03615105
178	0xbe169048	-0.14703476
179	0xbdf7c8bc	-0.12098834
180	0x3d1b8dcf	0.037977036
181	0x3d1db1bb	0.038499575
182	0x3cafcdad	0.021460379
183	0xbe4c35a2	-0.19942334
184	0xbe3cde5c	-0.18444198
185	0x3cd71f82	0.026260141
186	0xbda04f4a	-0.07827623
187	0x3e12749c	0.14302295
188	0xbe5585a1	-0.20851757
189	0xbdf0ef95	-0.11764447
190	0xbd928caa	-0.07155736
191	0x3d8f2c2f	0.06990849
192	0x3dbf1024	0.093292505
193	0x3d402612	0.046911307
194	0xbd7fa0e2	-0.06240929
195	0xbd42bb2d	-0.047541786
196	0x3d227125	0.039658684
197	0x3dace7d9	0.08442659
198	0x3c180bb6	0.009280136
199	0x3be6da89	0.0070450944
200	0x3d02f369	0.031970415
201	0xbdca6f3b	-0.09884497
202	0x3b2b4604	0.0026134262
203	0xbdb9aab8	-0.09065765
204	0xbe05a146	-0.13049802
205	0x3de7fdb5	0.11327688
206	0xbe397a59	-0.18113078
207	0xbe2526a8	-0.16128027
208	0xbe2f41da	-0.17114964
209	0xbd9dda76	-0.07707684
210	0xbd490939	-0.04908106
211	0xbc4fb418	-0.012677215
212	0x3cf98623	0.03045947
213	0xbde21fc3	-0.11041214
214	0xbcc0abb1	-0.023519369
215	0x3d639cc5	0.05556943
216	0x3d131edd	0.035918105
217	0x3e5041ff	0.20337676
218	0x3d355926	0.04427447
219	0xbc2e4d5f	-0.010638564
220	0xbcfb27d5	-0.030658642
221	0xbe1f1058	-0.15533578
222	0x3cc58309	0.024110334
223	0x3e4376df	0.19088314
224	0x3e6215df	0.22078656
225	0xbcd5ba91	-0.026089938
226	0x3e1e1647	0.15438186
227	0x3e730e97	0.23736034
228	0x3d4cfb10	0.05004412
229	0xbd82b1eb	-0.063815914
230	0xbd0f0819	-0.034919832
231	0x3cea636f	0.028611867
232	0x3e75e55e	0.24013278
233	0x3bc50767	0.0060128453
234	0xbe4dd0cb	-0.2009918
235	0xbdce1340	-0.100622654
236	0x3a469040	0.00075745955
237	0x3d78b4c2	0.06071926
238	0xbe67a458	-0.22621286
239	0x3d9730ad	0.07382331
240	0xbe05aadd	-0.1305346
241	0xbe0de69b	-0.138575
242	0x3e673e80	0.22582436
243	0xbdc443c8	-0.09583241
244	0xbc5715c2	-0.013127746
245	0x3d0164d7	0.03159031
246	0xbd265d5f	-0.04061639
247	0x3dbc0507	0.091806464
248	0xbd890357	-0.0669009
249	0xbe588e03	-0.21147923
250	0x3d92a704	0.07160762
251	0xbd8ec856	-0.06971805
252	0xbe53815a	-0.20654812
253	0x3caabdda	0.020842481
254	0x3e14ee65	0.14544065
255	0x3c52c5e7	0.012864566

conv2.bias f4 [16]
0	0xbdba89cd	-0.09108315
1	0xbd2c5a73	-0.042078447
2	0xbd334f19	-0.043776605
3	0x3dbb6c5b	0.091515265
4	0xbcdadece	-0.02671757
5	0x3d61f655	0.05516656
6	0xbda64f09	-0.081205435
7	0xbd92ba08	-0.07164389
8	0x3dda72e6	0.106664464
9	0xbdb4f22c	-0.08835253
10	0x3bd56697	0.006512474
11	0xbdaa080d	-0.08302317
12	0x3c7d31ce	0.015453769
13	0xbc8e80fb	-0.017395487
14	0xbb976af4	-0.004620904
15	0xbc9b0571	-0.018923493

fc1.weight f4 [120, 256]
0	0xbd8e8933	-0.069597624
1	0xbd6fcc46	-0.05854442
2	0x3c82a24d	0.015946532
3	0x3bbced7a	0.005765614
4	0xbc52fe45	-0.012878005
5	0xbb92bb33	-0.0044778823
6	0x3d88e566	0.06684379
7	0xbc90e3d0	-0.017686754
8	0xbcda3d7c	-0.026640646
9	0xbd2b684b	-0.04184751
10	0xbcf225fa	-0.029559124
11	0xbd9d6f64	-0.07687262
12	0x3d2cd699	0.042196844
13	0xbd437d68	-0.04772702
14	0xbd9adb2b	-0.07561334
15	0xbd6ea96e	-0.05826705
16	0xbd945086	-0.07241921
17	0xbd55af60	-0.052169204
18	0xbd33aded	-0.04386704
19	0x3d6df57d	0.058095444
20	0xbdb91221	-0.09036661
21	0xbd6de443	-0.058079015
22	0x3c4ee434	0.01262765
23	0xbd2417ad	-0.04006164
24	0x3c08c832	0.0083485115
25	0xbc2fcb82	-0.010729672
26	0xbd94a085	-0.07257179
27	0xbdc1e2a5	-0.09467057
28	0xbaf39297	-0.0018583116
29	0x3c7e451f	0.015519409
30	0xbce18d13	-0.02753309
31	0xbc8f9bca	-0.01753034
32	0xbd175c9a	-0.036953546
33	0xbd222ab1	-0.039591495
34	0xbca02114	-0.019547023
35	0x3d150266	0.03637924
36	0xbcdfb331	-0.027307125
37	0xbd99f5d1	-0.07517589
38	0xbd8fdaf1	-0.07024182
39	0x3d31ec65	0.043438334
40	0xbdc600d9	-0.096681304
41	0xbc70a6d6	-0.014688214
42	0xbd11d5f1	-0.03560442
43	0xbd3f7c25	-0.046749253
44	0x3ce08835	0.027408699
45	0x3d548387	0.051883247
46	0x3c3d9d1e	0.011573104
47	0xbd35e2e3	-0.04440583
48	0xbdc110cd	-0.094270326
49	0xbdaadd41	-0.08342982
50	0xbc46c16b	-0.012131075
51	0x3ca76643	0.020434504
52	0xbddb272b	-0.1070083
53	0xbd336600	-0.043798447
54	0xbd8665bc	-0.06562373
55	0xbda38e70	-0.07986152
56	0x3c55af4c	0.013042282
57	0x3cc96783	0.024585491
58	0x3daa7c52	0.083244935
59	0xbcce67b9	-0.025195943
60	0x3cf9a479	0.030473934
61	0xbdbf40b5	-0.09338514
62	0xbb9a1d6a	-0.0047032135
63	0x3d92892b	0.07155069
64	0x3d2fa06c	0.0428776
65	0xbc91bed1	-0.017791184
66	0xbcc94c7e	-0.024572607
67	0xbcb7337c	-0.022363417
68	0xbd5795e3	-0.052633177
69	0xbd48f786	-0.04906418
70	0xbc1b9b12	-0.009497421
71	0xbd9a4851	-0.075333245
72	0xbccb27e3	-0.024799293
73	0xbce4569f	-0.027873335
74	0xbcdbc7d4	-0.026828684
75	0x3d60445b	0.05475269
76	0x3b55974d	0.0032591403
77	0xbd5d7580	-0.054067135
78	0xbd0b9997	-0.03408202
79	0xbccc9c78	-0.024976954
80	0xbdd55cb2	-0.10418071
81	0xbd27eece	-0.040999226
82	0xbd95b55c	-0.07309982
83	0xbd0e6478	-0.034763783
84	0x3c840219	0.016114281
85	0xbd404bfd	-0.046947468
86	0xbd8ad090	-0.067780614
87	0x3bd20b6a	0.006410052
88	0xbd80265c	-0.062573165
89	0xbd55b7e1	-0.052177314
90	0xbd906af0	-0.07051647
91	0x3d81809e	0.0632336
92	0xbd779839	-0.060447905
93	0xbdb2913d	-0.08719108
94	0xbc260d57	-0.010135016
95	0xbce48420	-0.027895033
96	0x3b56207a	0.0032673166
97	0xbc8cf12d	-0.017204845
98	0xbda30e6e	-0.079617366
99	0xbd8ac167	-0.0677517
100	0xbd5f907a	-0.054581143
101	0xbd82a735	-0.063795485
102	0xbd117306	-0.035510086
103	0xbd981ed8	-0.07427758
104	0xbd167341	-0.03673101
105	0xbc9031a5	-0.017601797
106	0x3c221af2	0.00989412
107	0xbd7153ce	-0.058917813
108	0x3b1f1aa5	0.0024277356
109	0x3cfb54fc	0.030680172
110	0x3cd18394	0.025575437
111	0xbc5d0a67	-0.01349125
112	0xbceb41da	-0.028717924
113	0xbd0db3d9	-0.034595344
114	0xbc136039	-0.008995109
115	0xbbeeab5e	-0.007283612
116	0xbd6fc92e	-0.05854147
117	0xbc34bb74	-0.01103102
118	0x3c9b75f5	0.018977145
119	0xbd04c727	-0.03241649
120	0xbd1669d2	-0.036722012
121	0xbd754da1	-0.059888486
122	0x3bfd3f7e	0.007728516
123	0x3a5c6b0a	0.0008408284
124	0xbd144c39	-0.036205504
125	0xbd03e5fc	-0.032201752
126	0xbd665b28	-0.056239277
127	0xbd7557d3	-0.05989821
128	0xbd49b115	-0.049241144
129	0xbd3cafe7	-0.04606619
130	0x3b82b60f	0.003988988
131	0xbb150a9a	-0.0022741915
132	0xbd50649f	-0.05087721
133	0x3d733e04	0.059385315
134	0xbc042fbb	-0.00806802
135	0xbd5836ec	-0.052786753
136	0xbdbfbf9e	-0.0936272
137	0xbc24e2ab	-0.0100638075
138	0xbd770b48	-0.060313493
139	0xbd10174e	-0.035178475
140	0x3ccc6c74	0.024954058
141	0xbdb1bff1	-0.08679188
142	0xbd969108	-0.07351881
143	0xbda46712	-0.080274716
144	0xbd89cdf0	-0.067287326
145	0xbd9166e3	-0.07099702
146	0xbd9d66a4	-0.07685593
147	0xbd37fe4b	-0.044920247
148	0x3c8019e6	0.01563735
149	0xbd2a4c5e	-0.041576736
150	0xbc3e8552	-0.011628466
151	0xbd41dff8	-0.047332734
152	0xbdb1b823	-0.086776994
153	0xbd907894	-0.070542485
154	0xbd456c51	-0.048199
155	0x3ca66e9a	0.02031641
156	0xbd126a9e	-0.03574621
157	0xbd072e70	-0.03300327
158	0xbc804bc1	-0.015661122
159	0xbddb5f78	-0.107115686
160	0xbc1ed9fc	-0.009695526
161	0x3c7f26f2	0.01557325
162	0xbd246a43	-0.0401404
163	0xbcb04407	-0.021516813
164	0xbd8eeb9f	-0.06978535
165	0xbd2ceb32	-0.042216487
166	0x3ab16c81	0.0013536365
167	0xbb967c3c	-0.0045924466
168	0xbce355b7	-0.027750833
169	0xbd97b296	-0.074071094
170	0xbbff1c13	-0.007785329
171	0xbd188da1	-0.037244443
172	0xbd4a89ca	-0.049447812
173	0x3d3c74a6	0.046009682
174	0x3d8680d5	0.065675415
175	0x3ca91ca2	0.020643536
176	0xbd12b937	-0.035821166
177	0xbcc4f19c	-0.02404099
178	0x3d08e1dc	0.03341852
179	0xbdbf1537	-0.09330218
180	0xbd53d86c	-0.051720068
181	0xbcfc6522	-0.030809943
182	0xbcab1973	-0.020886159
183	0xbd6a972c	-0.057273075
184	0xbd892d54	-0.06698099
185	0xbcad6e2b	-0.021170696
186	0xbb92d786	-0.004481259
187	0xbcd37d70	-0.02581665
188	0x3b01c3ea	0.0019800612
189	0xbd380b44	-0.04493262
190	0x3d3ddcab	0.046353023
191	0x3cd1a230	0.025590032
192	0xbd795b35	-0.060877997
193	0xbd095151	-0.033524815
194	0xbcd0ed9b	-0.025503924
195	0xbd5e95a4	-0.054341927
196	0x3b4d6108	0.0031338353
197	0xbd08bc61	-0.033382777
198	0xbd38c719	-0.04511175
199	0xbcc7713f	-0.024345992
200	0xbc2e9635	-0.010655929
201	0xbd75b70a	-0.059989013
202	0x3c10193d	0.00879508
203	0x3ae06182	0.0017118903
204	0xbc0f0d84	-0.00873125
205	0xbd85ac2f	-0.06526982
206	0xbd04eb2e	-0.032450847
207	0xbcb5fcdc	-0.0222153
208	0xbb30caa8	-0.0026976261
209	0x3ccd9634	0.025096036
210	0xbc94d437	-0.018167598
211	0xbbbb1553	-0.005709329
212	0xbd902a4f	-0.0703932
213	0xbd4d197f	-0.050073143
214	0x3ca1befc	0.019744389
215	0x3cddb515	0.027063886
216	0xbbf4812d	-0.007461688
217	0xbda06682	-0.07832052
218	0xbd969ea8	-0.0735448
219	0xbc4197c5	-0.01181597
220	0xbc5dc31c	-0.013535287
221	0xbd55276c	-0.05203955
222	0x3c2b8936	0.010469725
223	0xbc827055	-0.015922705
224	0xbb516533	-0.0031951189
225	0x3c186bc3	0.009303036
226	0xbcc6c14a	-0.02426209
227	0xbcb2a693	-0.021807944
228	0xbc3be590	-0.011468306
229	0xbb931823	-0.0044889613
230	0xbd7f43c7	-0.062320497
231	0xbcecabd2	-0.028890524
232	0xbb2426d3	-0.0025047555
233	0xbd2cf5c7	-0.04222658
234	0x3cb87e06	0.02252103
235	0xbd5b5642	-0.05354906
236	0x3d24843c	0.04016517
237	0xbcbc7590	-0.023005277
238	0xbdacd3df	-0.08438849
239	0xbd156ab9	-0.03647873
240	0xbd273618	-0.040823072
241	0xbd09f489	-0.033680473
242	0x3d7109f2	0.058847375
243	0xbd970905	-0.07374767
244	0x3bb5fb17	0.005553614
245	0x3bbb285a	0.0057115974
246	0x3c54bc7c	0.012984391
247	0xbd3b5f50	-0.045745194
248	0xbd7194f8	-0.05897996
249	0x3d495f7c	0.049163327
250	0x3d4f473e	0.05060505
251	0x3c0a09e1	0.008425207
252	0xbd43069b	-0.04761372
253	0xbcfee6ff	-0.031116007
254	0x3c7986c5	0.0152298855
255	0x3d2feb25	0.04294886

fc1.bias f4 [120]
0	0xbdb5c44f	-0.088753335
1	0x3d9b54dc	0.07584545
2	0xbd983b45	-0.0743318
3	0xbd1aa7d8	-0.037757725
4	0xbd272977	-0.04081103
5	0x3dbfec1a	0.09371205
6	0x3d9e4f3f	0.07729959
7	0x3d03accb	0.03214721
8	0x3d42e7fd	0.047584523
9	0xbc8bb5c3	-0.017054444
10	0xbdd6af46	-0.104826495
11	0x3dcd5489	0.100258894
12	0xbd405727	-0.046958115
13	0xbcd0db09	-0.02549507
14	0xbdf1cf09	-0.11807067
15	0xbcc63053	-0.024192965
16	0x3c88e898	0.016712472
17	0x3df5d554	0.1200358
18	0x3d402d4f	0.04691821
19	0x3ca45eea	0.02006479
20	0x3c9b5569	0.018961625
21	0xbcbefba7	-0.023313357
22	0xbc1e05da	-0.00964495
23	0x3d49f9b5	0.049310405
24	0xbd6c7f68	-0.05773869
25	0x3d161081	0.036636833
26	0xbc36bed5	-0.011153896
27	0xbdcdf245	-0.10055975
28	0x3d8718b6	0.0659651
29	0x3d43faa6	0.04784646
30	0xbd897201	-0.06711198
31	0xbd2d9fcf	-0.042388733
32	0xbbc8df80	-0.006130159
33	0xbcd4c22d	-0.025971496
34	0x3d541876	0.05178114
35	0xbc3abb6e	-0.011397226
36	0x3d973c00	0.07384491
37	0x3bf302ba	0.0074160965
38	0xbd31ec8d	-0.043438483
39	0xbdcdcc6e	-0.100487575
40	0x3d4dcbc7	0.050243165
41	0x3d05154c	0.032491013
42	0x3d197101	0.037461285
43	0xbd2f4f13	-0.04280002
44	0xbccb096c	-0.024784766
45	0xbd2a5c4c	-0.041591927
46	0xbd2e5fac	-0.04257171
47	0xbd8ffc09	-0.07030494
48	0xbd9a360e	-0.07529841
49	0xbd1d89be	-0.03846144
50	0xbc739edb	-0.014869417
51	0xbd8de723	-0.069288515
52	0x3d20d3dd	0.03926455
53	0xbcc93602	-0.024561886
54	0xbd5c7306	-0.053820632
55	0xbdaafdf9	-0.08349223
56	0xbca101e2	-0.019654218
57	0xbce7262f	-0.02821645
58	0x3d988014	0.07446304
59	0x3d51fdd9	0.05126748
60	0xbaecef99	-0.0018076777
61	0xbda7aaa4	-0.08186844
62	0xbd5106cb	-0.05103187
63	0xbcc6a2ac	-0.02424749
64	0x3be8b398	0.0071014874
65	0x3d3a8518	0.045537084
66	0x3c69ae45	0.0142627405
67	0x3d02eb6d	0.0319628
68	0x3df7414b	0.120730005
69	0x3c4585f1	0.01205586
70	0xbcf47f49	-0.02984585
71	0x3d096c56	0.033550583
72	0x3d5f4da7	0.054517414
73	0xbdb19e8f	-0.08672821
74	0x3d287d48	0.041135103
75	0xbd6a78be	-0.057244055
76	0xbda2e4fe	-0.07953833
77	0xbdc3961f	-0.09550118
78	0xbc9398de	-0.018017229
79	0x3dbd3ca6	0.092400834
80	0x3cc7a5ce	0.024371054
81	0x3d9b07bc	0.075698346
82	0xbcd08d80	-0.025458097
83	0x3e0123d6	0.12611327
84	0xbcec4ee0	-0.028846204
85	0x3d0810a4	0.033218995
86	0xbdb57509	-0.08860213
87	0x3ca2d63b	0.019877544
88	0x3d2f8618	0.04285249
89	0x3d83ae1a	0.064296916
90	0xbcf1f36a	-0.029535014
91	0xbd568bef	-0.052379545
92	0x3d0468ef	0.032326635
93	0x3d49cef7	0.049269643
94	0xbdb6f430	-0.08933294
95	0xbd1990df	-0.037491675
96	0x3d74b985	0.059747238
97	0x3db831ab	0.089938484
98	0x3c25f72e	0.010129733
99	0xbd1d2955	-0.038369495
100	0xbca22168	-0.01979132
101	0x3bc5cd7f	0.00603646
102	0xbd16b5dc	-0.03679453
103	0xbd02bf4f	-0.031920727
104	0x3cc2512c	0.023720346
105	0x3b48b224	0.0030623758
106	0xbc9485d7	-0.018130226
107	0x3dcaf52b	0.09910043
108	0xbd82d828	-0.06388885
109	0x3d6341ac	0.05548255
110	0x3bb6c7fb	0.0055780387
111	0x3ba9d84f	0.0051832567
112	0xbc90b590	-0.0176647
113	0xbc7f08bd	-0.015566048
114	0x3c92b06b	0.017906388
115	0x3c00bb4f	0.007857158
116	0xbacf1dcd	-0.0015801728
117	0xbd4296a9	-0.047506962
118	0xbd9e1e46	-0.07720618
119	0xbc2af882	-0.010435225

fc2.weight f4 [84, 120]
0	0xbda416bb	-0.08012148
1	0x3d853e1d	0.06505988
2	0xbcfba40c	-0.030717872
3	0xbdef3d97	-0.11681669
4	0x3da551b0	0.08072221
5	0xbd586607	-0.052831676
6	0xbbaa7014	-0.005201349
7	0xbdca0fbd	-0.09866283
8	0xbc8cbfd4	-0.017181315
9	0x3e6b2668	0.2296387
10	0xbc8f6962	-0.017506305
11	0x3e2336f4	0.15938932
12	0x3b9465ea	0.0045287507
13	0xbda80b73	-0.08205309
14	0xbe27876d	-0.16360255
15	0x3daed5b3	0.08536854
16	0xb9a80b64	-0.00032051944
17	0x3d879eb3	0.06622066
18	0x3e318d68	0.17339098
19	0x3db7083d	0.08937118
20	0xbd838a8c	-0.0642291
21	0xbc9f4e56	-0.019446533
22	0x3c4c9b96	0.012488266
23	0x3cf31f90	0.029678136
24	0xbd7ae543	-0.061253797
25	0xbd0e5be2	-0.034755595
26	0xbd476431	-0.048679534
27	0x3cbbfdb8	0.022948131
28	0x3e2d9f57	0.16955315
29	0x3db27cd3	0.087152146
30	0xbdc9a354	-0.098456055
31	0xbceb52a5	-0.028725931
32	0x3cd2b92e	0.025723066
33	0x3d38aeea	0.045088686
34	0xbd9a2a70	-0.075276256
35	0xbc65bee3	-0.014022562
36	0x3dcc0dd1	0.09963573
37	0x3db2bb3a	0.08727117
38	0x3d57f11b	0.05272017
39	0x3dbfc26b	0.09363254
40	0x3df74a65	0.120747365
41	0x3d880124	0.066408426
42	0xbc02e78d	-0.007989776
43	0xbd951473	-0.07279291
44	0xbdc61087	-0.09671121
45	0x3dd7e5ec	0.10541901
46	0x3d1731f3	0.03691287
47	0x3adf1159	0.001701872
48	0x3e093717	0.13399921
49	0x3e225d46	0.15855893
50	0xbe3ef68a	-0.18648735
51	0x3d5eed0d	0.054425288
52	0xbde901ec	-0.1137732
53	0x3dafc2f7	0.085821085
54	0x3e625ea9	0.22106422
55	0xbc929e8e	-0.01789787
56	0xbd205635	-0.039144713
57	0xbd4055f0	-0.046956956
58	0xbe0e0805	-0.13870247
59	0x3dd51480	0.10404301
60	0x3defcb1f	0.11708664
61	0xbb17ebf6	-0.0023181415
62	0xbc06190c	-0.008184683
63	0xbc14121f	-0.0090375235
64	0xbda8bc1e	-0.082390055
65	0xbdb18d4f	-0.086695306
66	0x3e11dada	0.14243641
67	0x3d761937	0.06008264
68	0xbe025832	-0.12728956
69	0x3e417494	0.18892127
70	0x3e03059b	0.12795107
71	0xbd740d13	-0.05958278
72	0xbdb0f3ed	-0.08640275
73	0x3d7958d7	0.06087574
74	0xbe0060f5	-0.12536986
75	0x3d7aaa1e	0.061197393
76	0x3c8aa237	0.016923053
77	0x3dcd14fd	0.10013769
78	0xbd7353b6	-0.059406005
79	0x3dd29b50	0.1028353
80	0xbd7a5d02	-0.061123855
81	0x3e013d03	0.1262093
82	0x3df17d3b	0.11791464
83	0x3cdd1e7a	0.026992071
84	0x3d2283d7	0.039676514
85	0x3daa3aba	0.083119825
86	0x3b3a1fb9	0.0028400256
87	0xbda3a71e	-0.079908594
88	0x3d897c2c	0.06713137
89	0xbc55e59a	-0.01305523
90	0xbbb0ddb3	-0.0053975224
91	0xbd7787ba	-0.060432173
92	0xbe2f63c1	-0.17127897
93	0xbd967bb9	-0.07347817
94	0x3daa404b	0.08313044
95	0x3d8f68af	0.07002389
96	0xbc3f3436	-0.011670163
97	0xbc920a18	-0.017827079
98	0x3e34a8c6	0.17642507
99	0x3ddd7ebc	0.10815188
100	0x3db9f95c	0.09080765
101	0xbcae1c5e	-0.02125376
102	0x3dc43b1b	0.09581586
103	0xbc91e48b	-0.017809173
104	0xbcb90286	-0.022584211
105	0x3e0e2d75	0.13884528
106	0x3de8e56e	0.11371885
107	0xbe5426ae	-0.2071788
108	0x3e39baa1	0.181376
109	0x3d81ada6	0.06331949
110	0xbda2ddbe	-0.0795245
111	0x3db14c6a	0.08657153
112	0xbe272982	-0.16324428
113	0x3cc3f94b	0.023922583
114	0xbdbd6044	-0.09246877
115	0xbd32fa55	-0.043695766
116	0xbe0fdb2b	-0.1404845
117	0x3caa3625	0.020777771
118	0xbda2706d	-0.079316
119	0x3e8b198a	0.27167922
120	0x3d989e53	0.07452073
121	0xbda721e9	-0.08160765
122	0x3b959a50	0.0045655146
123	0xbdd77de7	-0.10522061
124	0xbb13b264	-0.002253675
125	0xbe03c2a6	-0.12867221
126	0xbc602aad	-0.01368205
127	0xbe50a108	-0.20373929
128	0xbdb936ff	-0.09043693
129	0xbcfb1d9c	-0.030653767
130	0x3df1b4e5	0.11802081
131	0x3e05091c	0.12991756
132	0xbdcb225a	-0.099186614
133	0x3d6281e9	0.055299673
134	0xbd829c59	-0.06377477
135	0xbb9f57ec	-0.004862776
136	0xbaf7d0e0	-0.0018906854
137	0xbe89c8cf	-0.26911017
138	0xbe360b1a	-0.17777672
139	0x3dede427	0.11615782
140	0xbcd9183d	-0.026500816
141	0x3daebcad	0.08532081
142	0xbd5d825d	-0.054079402
143	0xbd979014	-0.074005276
144	0xbc1ea985	-0.009683971
145	0xbe57615c	-0.21033233
146	0xbe7bfb74	-0.2460764
147	0x3d87d447	0.066322856
148	0x3c6c5fac	0.014427107
149	0xbe6b4f6b	-0.22979514
150	0xbe5e3758	-0.217008
151	0x3da4b83e	0.08042954
152	0x3d7f76e0	0.062369227
153	0xbdbed49a	-0.09317894
154	0x3d89fd38	0.06737751
155	0xbb537560	-0.0032266006
156	0x3d45b71b	0.048270326
157	0xbd8ee5e2	-0.069774404
158	0x3da51ec3	0.08062508
159	0x3de4ebbd	0.11177776
160	0xbd092281	-0.03348017
161	0xbc4015d8	-0.011723958
162	0xbe82b134	-0.2552582
163	0xbd41bba7	-0.0472981
164	0xbdb2e185	-0.08734421
165	0x3d576f66	0.052596472
166	0x3dd6379b	0.10459825
167	0x3c38a5b0	0.011269972
168	0x3d1ce51e	0.03830444
169	0xbe87751d	-0.26456538
170	0xbdedff6c	-0.116209835
171	0xbb7bb560	-0.0038407668
172	0xbdebc358	-0.11511868
173	0x3e42fd58	0.19041955
174	0xbdc96425	-0.09833554
175	0xbddb74d7	-0.10715645
176	0xbe58e514	-0.21181136
177	0xbd5da9cd	-0.054117013
178	0x3e46c511	0.19411112
179	0x3e020f16	0.12701067
180	0x3e1a6424	0.15077263
181	0xbbd17a56	-0.0063927574
182	0x3ee89a23	0.45430097
183	0xbc7c7597	-0.015408895
184	0x3dbf32f2	0.09335889
185	0xbcac76d9	-0.021052765
186	0xbdc7a12f	-0.0974754
187	0xbdcd1bc7	-0.10015064
188	0x3e400f14	0.18755752
189	0xbd17d3ad	-0.037067104
190	0xbdc4b887	-0.09605508
191	0xbb5fe6fc	-0.0034164777
192	0xbe10633c	-0.14100355
193	0xbc53dae8	-0.012930609
194	0xbd4b5e4d	-0.04965048
195	0xbd810b28	-0.06300956
196	0xbe3a4507	-0.18190394
197	0xbc615bb1	-0.013754771
198	0x3c52fb68	0.012877323
199	0x3e037321	0.12836887
200	0x3c251320	0.010075361
201	0xbe22d6bc	-0.15902227
202	0x3e356864	0.17715603
203	0xbe346083	-0.17614941
204	0xbd752c72	-0.05985684
205	0xbdca0451	-0.098641045
206	0xbda3b6cd	-0.07993851
207	0x3d26a3d4	0.040683582
208	0xbd595fed	-0.053069998
209	0xbe63397b	-0.22189896
210	0x3e810495	0.25198808
211	0xbe76499f	-0.24051522
212	0x3be55d40	0.0069996417
213	0x3de37ed2	0.111081734
214	0xbe106096	-0.14099345
215	0x3ac7b700	0.0015237033
216	0xbd36b6c2	-0.044607885
217	0xbe009aef	-0.12559102
218	0x3c80a72d	0.015704716
219	0x3d0c2812	0.0342179
220	0x3cf96a4a	0.03044619
221	0xbcdbff04	-0.026855
222	0x3d993fc2	0.07482864
223	0x3ba25834	0.0049543623
224	0xbc21e3b6	-0.009880951
225	0xbcc32a1f	-0.023823796
226	0x3a165fb7	0.00057363085
227	0x3d198819	0.03748331
228	0xbde2a2a9	-0.11066181
229	0xbe626914	-0.22110397
230	0x3d945d07	0.07244306
231	0xbd4d58f6	-0.050133668
232	0x3d12fd51	0.035886113
233	0x3d7b1fa3	0.061309468
234	0xbe9e57b1	-0.30926278
235	0x3d9548df	0.0728929
236	0x3d1cc977	0.03827807
237	0xbdf1fa16	-0.11815278
238	0xbc590c1d	-0.013247517
239	0x3e86fb46	0.2636358
240	0xbd27a7cc	-0.040931508
241	0x3dccf62c	0.10007891
242	0xbd916273	-0.07098856
243	0xbe06ce55	-0.13164647
244	0xbd294896	-0.04132899
245	0x3e0604ca	0.13087764
246	0xbddf0364	-0.108893186
247	0xbe47d5f9	-0.19515218
248	0xbe6f0280	-0.23340797
249	0x3e8cbd77	0.274883
250	0xbe1d3bf8	-0.15354908
251	0xbde078ff	-0.10960578
252	0x3d1010b5	0.035172183
253	0x3d4bb3e4	0.049732104
254	0xbc870b60	-0.016484916
255	0x3d1e4e99	0.038649175

fc2.bias f4 [84]
0	0x3daa4efb	0.083158456
1	0xbe461712	-0.19344738
2	0x3ca0a474	0.019609667
3	0xbe2004ff	-0.15626906
4	0x3c5593e9	0.013035753
5	0x3d7a1fe4	0.06106557
6	0xbdd17b10	-0.102285504
7	0x3dfd7014	0.12374893
8	0x3d5c86cb	0.053839486
9	0x3da7386a	0.08165057
10	0x3dd98460	0.10620952
11	0xbd882a48	-0.066486895
12	0x3dbef361	0.093237646
13	0xbe207b04	-0.15671927
14	0x3ddbf524	0.10740116
15	0xbdd241b4	-0.10266438
16	0x3df1c4a4	0.11805084
17	0x3c9c69e5	0.019093463
18	0x3e20c529	0.1570021
19	0x3e1ad852	0.15121582
20	0xbd5bb2d8	-0.053637356
21	0x3dc24afa	0.09486957
22	0x3de9bcf1	0.11412991
23	0xbc881557	-0.016611738
24	0xbcc8971c	-0.024486117
25	0xbcd4a0df	-0.025955616
26	0x3d89c7d2	0.06727566
27	0x3e21cee3	0.15801577
28	0xbdb1a512	-0.08674063
29	0xbe01abed	-0.1266324
30	0x38bc1612	8.9686495e-05
31	0xbc81120c	-0.015755676
32	0xbda1fd58	-0.079096496
33	0x3d0b7ad7	0.034052696
34	0x3ab08468	0.0013467195
35	0x3d8d1108	0.06888014
36	0xbd77f0e8	-0.06053248
37	0xbd00c23e	-0.031435244
38	0xbd3c686c	-0.045998022
39	0x3da66ff3	0.08126821
40	0xbe0d1cd0	-0.13780522
41	0x3dc2d591	0.09513391
42	0x3d4c6496	0.049900614
43	0x3e05b3c9	0.13056864
44	0x3cfb6f64	0.030692764
45	0xbd96ed5d	-0.07369492
46	0xbca0c1f4	-0.019623734
47	0xbbe8f85d	-0.0071096853
48	0x3d984c42	0.0743642
49	0xbde8013f	-0.11328363
50	0xbd95fa51	-0.07323135
51	0xbdbca1a3	-0.09210517
52	0xbd6dc2aa	-0.058046974
53	0xbcb13402	-0.021631245
54	0x3daa63d4	0.08319822
55	0x3db0ffd6	0.08642547
56	0xbc86928d	-0.016427303
57	0xbdc67195	-0.09689633
58	0xbe04d053	-0.12970094
59	0xbd85e701	-0.06538201
60	0x3d787c4c	0.060665414
61	0xbd9e694d	-0.07734928
62	0x3cef58e2	0.029217187
63	0xbd38a430	-0.045078456
64	0x3db22889	0.08699138
65	0xbe13a8a8	-0.14419806
66	0xbd71e043	-0.059051763
67	0xbdd08c0e	-0.10182963
68	0xbd8eb8b6	-0.069688246
69	0x3d3a583a	0.045494296
70	0xbdff9b8a	-0.124808386
71	0xbdd9fa98	-0.106435
72	0xbd9a318a	-0.0752898
73	0xbe0c60b5	-0.13708766
74	0x3bf9c461	0.007622287
75	0xbbf5da5a	-0.007502836
76	0x3d49d6eb	0.049277227
77	0x3d9e85e4	0.07740381
78	0x3da2493f	0.07924127
79	0x3c729c84	0.014807824
80	0xbda5d756	-0.08097713
81	0xbdd4836f	-0.103766315
82	0xbb87f49a	-0.004149032
83	0x3e346e4f	0.17620204

fc3.weight f4 [10, 84]
0	0x3b38b96d	0.0028186694
1	0x375d0108	1.3172867e-05
2	0x3dc8beb0	0.09801996
3	0xbe021de0	-0.12706709
4	0xbdbd4cd4	-0.092431694
5	0xbaf142b8	-0.0018406725
6	0x3cf797af	0.030223696
7	0xbd83050e	-0.063974485
8	0x3e3337e0	0.17501783
9	0x3d30bf79	0.043151353
10	0x3dbb5808	0.0914765
11	0x3dc96047	0.098328166
12	0xbdb19b72	-0.08672227
13	0x3e1029c6	0.14078435
14	0xbeec60f3	-0.46167716
15	0xbd1e2a14	-0.038614348
16	0xbe77e652	-0.24208954
17	0xbe8c2ecb	-0.2737945
18	0x3de608fc	0.112321824
19	0xbd7d7fa2	-0.0618893
20	0x3d912957	0.07087963
21	0x3df82182	0.12115766
22	0x3d92769f	0.071515314
23	0xbddf7dee	-0.10912691
24	0x3e006c5b	0.12541334
25	0x3e0c88f3	0.13724117
26	0x3e040d2a	0.12895647
27	0xbd477314	-0.04869373
28	0x3c5859ec	0.013205033
29	0xbe3bca47	-0.18338881
30	0x3e46ed34	0.19426423
31	0xbe708d7c	-0.23491472
32	0x3cbee34b	0.023301741
33	0xbe2c7cb5	-0.16844447
34	0xbe16d06d	-0.14727946
35	0xbd952778	-0.07282919
36	0xbd4a0e24	-0.04932989
37	0x3e0a338b	0.13496225
38	0xbd1d6ca8	-0.0384337
39	0xbe3ff90d	-0.18747349
40	0xba34cd1e	-0.000689702
41	0xbe906fd0	-0.28210306
42	0xbe85ddb6	-0.26145715
43	0xbd345bbb	-0.044032793
44	0xbe75bed2	-0.23998573
45	0xbde83c1f	-0.11339592
46	0x3c8739ba	0.016507018
47	0x3dcc0dec	0.09963593
48	0xbdcccf8c	-0.10000524
49	0x3d7bd6d5	0.061484177
50	0xbe3ee0fa	-0.18640509
51	0xbe12767d	-0.14303012
52	0xbe19ac2b	-0.15007083
53	0x3d5adfed	0.05343621
54	0x3d541ed2	0.051787205
55	0xbe8ddec9	-0.27709034
56	0xbe1cec3b	-0.1532449
57	0xbdadefc6	-0.08492999
58	0xbd30f74d	-0.043204594
59	0x3e597d8e	0.21239302
60	0xbddfc23f	-0.109257214
61	0xbe00284e	-0.12515375
62	0xbdc1b496	-0.09458272
63	0xbd5bdb23	-0.053675782
64	0xbe1beb5c	-0.15226501
65	0x3dbc59ef	0.09196841
66	0xbd617c0c	-0.05504994
67	0x3c8c0c3e	0.017095681
68	0x3da4faaa	0.08055623
69	0x3e1ea28b	0.15491693
70	0xbc84bbb8	-0.016202793
71	0x3df2bdc8	0.11852604
72	0xbd2326b7	-0.039831843
73	0x3d63e626	0.05563941
74	0xbe84cb5d	-0.25936404
75	0xbdb498aa	-0.08818181
76	0x3e2de0e0	0.16980314
77	0xba509876	-0.0007957289
78	0x3d2c1f60	0.04202211
79	0x3ddb8bfa	0.10720058
80	0x3bb5651e	0.0055357357
81	0xbe012fbc	-0.12615865
82	0x3e11a736	0.14223942
83	0xbe8313d2	-0.2560106
84	0x3dfccc08	0.123436034
85	0x3e0b63ef	0.1361234
86	0xbc8bfd85	-0.017088661
87	0x3cb3d420	0.021951735
88	0xbddea4c8	-0.10871273
89	0xbd896e64	-0.067105085
90	0x3e35bfc1	0.1774893
91	0x3d16cb2a	0.036814846
92	0xbd814b01	-0.06313134
93	0xbe8c1b2b	-0.27364478
94	0x3e04f2a4	0.12983185
95	0xbdfeb4a5	-0.12436799
96	0xbea5f8fd	-0.32416525
97	0xbd9cc374	-0.07654467
98	0x3ddc2c2d	0.10750613
99	0x3cea5e4e	0.028609421
100	0xbcb807ac	-0.022464596
101	0x3de32e6d	0.110928394
102	0xbc82bc91	-0.015959056
103	0x3dbe5d8b	0.09295186
104	0x3da51020	0.08059716
105	0x3d2b1d90	0.04177624
106	0xbea31c22	-0.318574
107	0xbd80a9d1	-0.0628239
108	0x3d979ce3	0.07402971
109	0xbe98dee7	-0.2985756
110	0xbe33d14a	-0.17560306
111	0x3de01949	0.10942323
112	0x3c93c0df	0.018036304
113	0xbe981ef3	-0.29711112
114	0xbe19e560	-0.15028906
115	0xbd5f7f76	-0.054564916
116	0x3ddc0058	0.10742253
117	0xbe9fc02d	-0.31201306
118	0xbe25c4f7	-0.16188417
119	0x3d1767f8	0.036964387
120	0xbd2c8f3c	-0.042128786
121	0xbdbc3c96	-0.09191243
122	0x3e5c7410	0.2152865
123	0xbe4420b5	-0.19153102
124	0xbba0fb81	-0.004912794
125	0x3dbceafe	0.09224509
126	0x3d948473	0.07251825
127	0xbe94c2ad	-0.29054776
128	0x3e0cee51	0.13762785
129	0xbdb76e4a	-0.08956583
130	0xbe3e215f	-0.18567418
131	0xbe5b26f5	-0.2140158
132	0x3c511b98	0.0127629265
133	0xbdccae5c	-0.09994194
134	0xbcba7039	-0.02275859
135	0x3d173562	0.036916144
136	0x3d3a3410	0.045459807
137	0x3d94a9d3	0.07258954
138	0xbe4718e5	-0.1944309
139	0x3d61254a	0.054967202
140	0xbe292539	-0.16518106
141	0xbe03403d	-0.12817474
142	0x3da0bd21	0.078485735
143	0xbce50359	-0.027955698
144	0x3dbec027	0.09313994
145	0x3e0bf2f7	0.13666902
146	0xbd909fb5	-0.07061712
147	0x3de2b435	0.11069528
148	0xbe89e9a6	-0.26936072
149	0xbd099c65	-0.033596415
150	0xbd8e4237	-0.06946223
151	0xbdf4f63b	-0.11961027
152	0xbe0d2ea0	-0.13787317
153	0x3d8b3542	0.067972675
154	0xbca45d1b	-0.020063927
155	0xbc9089f0	-0.017643899
156	0x3d4fab59	0.05070052
157	0x3e23e565	0.16005476
158	0x3da736c1	0.0816474
159	0x3da5d325	0.08096913
160	0xbe852832	-0.2600723
161	0xbd25a6de	-0.04044234
162	0x3d9e4f19	0.077299304
163	0xbe60670b	-0.21914308
164	0xbc8120c0	-0.015762687
165	0x3d55948a	0.05214361
166	0x3d47cfde	0.048782222
167	0xbcd7bd09	-0.026335256
168	0x3e1d458b	0.1535856
169	0x3d8c0303	0.06836512
170	0x3dd1232a	0.10211785
171	0xbe0985f0	-0.1343
172	0xbd072085	-0.032989997
173	0xbdfc14c3	-0.123086475
174	0x3d0262ba	0.031832434
175	0xbd803664	-0.06260374
176	0xbc49b2a3	-0.012310657
177	0x3d0b679b	0.034034353
178	0x3dedbc54	0.11608186
179	0xbda6a32a	-0.0813659
180	0x3d88178f	0.066451184
181	0x3d241e54	0.040067986
182	0xbe3b4e62	-0.1829162
183	0x3d38bec4	0.045103803
184	0x3e142697	0.14467846
185	0x3c184304	0.0092933215
186	0x3e1e5554	0.15462238
187	0xbe67b2a7	-0.22626744
188	0x3ce75179	0.028237091
189	0xbe378a90	-0.17923951
190	0xbd11794e	-0.035516076
191	0x3d2f90ea	0.04286281
192	0x3dc0b641	0.09409762
193	0xbd84fe29	-0.0649379
194	0x3e5097af	0.20370363
195	0xbea2fa69	-0.31831673
196	0x3e05b123	0.13055854
197	0x3e006585	0.12538727
198	0xbe794561	-0.24342872
199	0xbbdb91b9	-0.006700721
200	0xbdb33786	-0.08750825
201	0x3da4d3be	0.08048199
202	0xbd35feb8	-0.04443237
203	0xbaba431b	-0.0014210673
204	0x3d1ddcf2	0.038540788
205	0x3dea9367	0.11453896
206	0xbeb3e00d	-0.35131875
207	0x3da061eb	0.07831176
208	0x3d0f99fc	0.03505896
209	0xbdb67510	-0.08909047
210	0xbdd9c2f4	-0.106328875
211	0x3d26f8ad	0.0407645
212	0x3bd40838	0.0064707063
213	0xbde1baeb	-0.1102198
214	0xbdacd8f7	-0.0843982
215	0xbdfd1d6f	-0.1235913
216	0xbd4f0300	-0.05053997
217	0x3da26757	0.07929867
218	0x3d9efa65	0.07762603
219	0xbd786f8e	-0.06065326
220	0x3e334e7c	0.17510408
221	0xbdca512e	-0.09878765
222	0xbe0e8071	-0.13916184
223	0xbd9765c5	-0.07392458
224	0xbd3b8579	-0.045781586
225	0xbd43806e	-0.047729902
226	0xbdcdf800	-0.10057068
227	0xbe5fcba9	-0.21855034
228	0x3d01d475	0.031696755
229	0xbda1623e	-0.07880066
230	0xbe541bfa	-0.20713797
231	0x3df39a35	0.11894647
232	0x3e13249f	0.14369439
233	0xbdf9018e	-0.121585
234	0xbe1286e5	-0.1430927
235	0xbe84f61e	-0.25969023
236	0xbde80d47	-0.113306575
237	0x3dee40c2	0.11633445
238	0xbd5711b1	-0.052507106
239	0xbe0f153c	-0.13972944
240	0x3d8ba6c4	0.068189174
241	0x3c2a09a5	0.010378276
242	0x3e4f61a4	0.2025209
243	0x3d9fb513	0.07798209
244	0xbe42188d	-0.18954678
245	0x3ca976ce	0.020686533
246	0xbbedec63	-0.0072608455
247	0x3dddc9a1	0.10829473
248	0xbd2100c5	-0.039307375
249	0x3da7ddea	0.081966236
250	0xbbc46cef	-0.005994431
251	0xbe38b039	-0.18035974
252	0x3e41e56a	0.18935171
253	0xbd3f82e1	-0.046755675
254	0x3e357adf	0.17722653
255	0xbd97dc0d	-0.07415018

fc3.bias f4 [10]
0	0x3d89c6a0	0.06727338
1	0x3b7d19ee	0.0038620192
2	0xbdd45051	-0.10366882
3	0x3dbf9aee	0.09355722
4	0x3d7a06fd	0.06104182
5	0xbcaf42ec	-0.021394216
6	0x3cb35c54	0.021894611
7	0xbcfc47a9	-0.030795889
8	0x3e87ae56	0.26500195
9	0x3dc401a2	0.09570624
